control_allocation/src/full_train_shuffle_model.pt (torch, 16466 bytes, 12 tensors)

weight f4 [25, 3]
0	0x3ece2b4c	0.40267408
1	0x3ee7cb56	0.4527232
2	0xbe411d71	-0.18858887
3	0x3f1246aa	0.57139075
4	0xbe7d5f91	-0.24743487
5	0x3db38cdb	0.087671004
6	0xbe905887	-0.2819254
7	0x3edccf63	0.43126974
8	0x3ee42cde	0.4456548
9	0xbf0ee732	-0.55821526
10	0x3ed94891	0.42438176
11	0x3d391017	0.04518136
12	0x3f106248	0.56399965
13	0x3d9a353d	0.07529686
14	0x3e129e5c	0.14318222
15	0xbca79dd0	-0.020460993
16	0x3ebc11c0	0.36732292
17	0x3cabf43e	0.020990487
18	0xbea4cf99	-0.32189634
19	0x3beef484	0.007292332
20	0xbe977201	-0.29579166
21	0xbcd518ca	-0.026012797
22	0xbebda211	-0.3703771
23	0x3eca4b7c	0.39510715
24	0xbef18d74	-0.47178233
25	0xbf0b3f5d	-0.5439356
26	0xbe614bea	-0.22001615
27	0xbec21b72	-0.37911564
28	0x3ba35eb9	0.004985657
29	0xbf0ed436	-0.5579256
30	0x3ef68eaf	0.48155734
31	0xbf0b5535	-0.5442689
32	0x3f02ed3d	0.51143247
33	0x3d9c747a	0.07639404
34	0xbe1e272b	-0.15444629
35	0x3eeac0b3	0.45850143
36	0x3d0e7373	0.03477807
37	0x3f01b596	0.50667703
38	0x3da314ae	0.07962929
39	0xbe816f2e	-0.25280136
40	0x3e3cb6a5	0.18429048
41	0xbe30be3b	-0.17260067
42	0x3e9d6c49	0.30746678
43	0x3f29b585	0.662926
44	0x3e4fb251	0.20282866
45	0xbe4b2099	-0.19836654
46	0x3ecaa10f	0.39576003
47	0x3c9b24e3	0.018938487
48	0x3eaada81	0.3336983
49	0xbed29515	-0.41129366
50	0xbf002d4a	-0.50069106
51	0xbe9cf2e1	-0.30654052
52	0xbedb38cc	-0.4281677
53	0x3f05dd69	0.5229097
54	0x3e349a8b	0.17637078
55	0x3e9874b4	0.29776537
56	0x3de05403	0.10953524
57	0x3d048759	0.03235564
58	0x3f05b3cd	0.5222748
59	0xbee22d9b	-0.4417542
60	0x3d92b900	0.07164192
61	0xbec458c5	-0.38348976
62	0x3e7c192f	0.24618982
63	0xbe46b7e1	-0.19406082
64	0x3eaf14d8	0.3419559
65	0xbe85791c	-0.26068962
66	0x3ec82838	0.39093184
67	0xbeb123f0	-0.3459773
68	0xbe9d7302	-0.30751806
69	0xbebcd572	-0.36881596
70	0x3eeef4f3	0.46671256
71	0x3e085baf	0.13316225
72	0x3ee16fd3	0.44030628
73	0xbf30ee46	-0.69113576
74	0xbf07cff7	-0.53051704

bias f4 [25]
0	0xbef22915	-0.47296968
1	0xbe9a4a29	-0.30134705
2	0x3dcb79eb	0.099353634
3	0x3e69dc71	0.22837998
4	0x3eb70da3	0.35752591
5	0xbeb530bd	-0.35388747
6	0xbec5be23	-0.38621625
7	0x3ec4835b	0.38381466
8	0xbe5a9fef	-0.21350072
9	0x3ea68df6	0.32530183
10	0xbddeb6d8	-0.108747184
11	0x3e62c24a	0.22144428
12	0xbed7e14d	-0.42164078
13	0xbe6fa75f	-0.23403691
14	0x3df89251	0.12137283
15	0x3d798834	0.06092091
16	0xbdc4b251	-0.09604324
17	0x3ef4c249	0.47804478
18	0x3e882e32	0.26597744
19	0xbeb26707	-0.3484423
20	0xbe92e13e	-0.2868747
21	0x3ef8c4eb	0.48587736
22	0xbe998d2c	-0.29990518
23	0xbe4f9301	-0.20270921
24	0xbef0ae1c	-0.47007835

weight f4 [15, 25]
0	0xbe0d2510	-0.1378367
1	0x3dbdb8c0	0.09263754
2	0xbc9289e9	-0.017888026
3	0xbe12dda0	-0.14342356
4	0xbd1730ba	-0.036911704
5	0xbe0cd71e	-0.13753936
6	0xbe2dbf28	-0.16967452
7	0x3c821dec	0.015883408
8	0xbdcc1893	-0.09965625
9	0xbe2ac5c1	-0.16677
10	0x3ebd77b3	0.37005386
11	0x3e017bd3	0.12644891
12	0x3d4c7972	0.049920507
13	0xbe3f0385	-0.18653686
14	0xbe2b0e01	-0.16704561
15	0xbd8a0596	-0.06739347
16	0x3d6aa47a	0.057285763
17	0x3b475fca	0.0030422085
18	0xbdf98afa	-0.12184711
19	0xbdf90e86	-0.12160973
20	0x3db14cbd	0.08657215
21	0xbe01c52f	-0.12672876
22	0x3cf00dc4	0.029303439
23	0xbe0afe33	-0.13573532
24	0xbd499480	-0.049213886
25	0xbe08c101	-0.13354875
26	0xbd8c8456	-0.068611786
27	0xbdff5392	-0.12467112
28	0x3e31254a	0.17299381
29	0xbcdf162e	-0.027232256
30	0x3dfe77e5	0.12425212
31	0x3dee1609	0.116252966
32	0xbe0c98cc	-0.13730162
33	0x3e969183	0.29407892
34	0x3d2e0173	0.04248185
35	0xbe0a9890	-0.1353476
36	0xbe299e18	-0.16564214
37	0xbe6a0922	-0.22855046
38	0x3c961a0b	0.018322965
39	0xbdd39c43	-0.10332539
40	0x3c93a10c	0.01802113
41	0xbe562ae9	-0.20914806
42	0x3e74a918	0.23892629
43	0xbe21f2ab	-0.15815227
44	0xbdefd862	-0.117111936
45	0xbd068c5b	-0.032848697
46	0x3e334ead	0.17510481
47	0x3df39157	0.11892956
48	0x3d8dc87f	0.06923007
49	0xbe54f836	-0.2079781
50	0xbd968de4	-0.07351282
51	0xbdd0e24e	-0.10199414
52	0x3e3c3a39	0.18381585
53	0xbe2f4dee	-0.17119572
54	0x3e6b169d	0.22957845
55	0xbe29fc75	-0.16600211
56	0x3dda4cdc	0.10659191
57	0x3db1cbb2	0.0868143
58	0x3d267bd5	0.04064544
59	0xbe26fcb4	-0.16307336
60	0x3e4557a5	0.19271715
61	0x3df34862	0.1187904
62	0xbcae1ee5	-0.021254966
63	0xbe34cf16	-0.17657122
64	0x3e792161	0.2432914
65	0xbd37b9e5	-0.044855017
66	0xbe21cf1b	-0.1580166
67	0x3db6e903	0.08931162
68	0x3ddfe861	0.10932995
69	0xbe35d8eb	-0.17758529
70	0xbe31a880	-0.17349434
71	0xbdf3ca3f	-0.1190381
72	0x3d820415	0.06348435
73	0xbd9d58be	-0.07682942
74	0xbe170620	-0.1474843
75	0xbdddc9fa	-0.108295396
76	0xbe30f6a0	-0.1728158
77	0x3e52b824	0.20578057
78	0x3e437e81	0.19091226
79	0xbea49578	-0.32145286
80	0x3c4d1b34	0.012518693
81	0x3d5b1820	0.053489804
82	0x3df08e13	0.117458485
83	0xbde813b4	-0.11331883
84	0xbe2cd8c1	-0.1687956
85	0xbde0aaa1	-0.10970045
86	0x3def66a0	0.11689496
87	0xbda165a2	-0.07880713
88	0xbde58598	-0.112071216
89	0xbccf01a2	-0.025269333
90	0xbc9b0394	-0.018922605
91	0xbe064826	-0.1311346
92	0x3e862da5	0.262067
93	0x3dedf82f	0.11619603
94	0xbdb5309f	-0.08847164
95	0xbdad1847	-0.08451896
96	0xbd0cb796	-0.03435477
97	0xbd42ffab	-0.047607105
98	0x3d50e75d	0.051001895
99	0x3c64269e	0.013925223
100	0xbd3a6acf	-0.045512017
101	0xbdd55b33	-0.104177855
102	0x3e99a72a	0.3001035
103	0x3e09f6c1	0.13473035
104	0x3d3c8d7a	0.04603336
105	0x3c798af1	0.01523088
106	0xbe0fb5c5	-0.14034183
107	0xbecd0b5e	-0.40047735
108	0xbe057ab7	-0.13035093
109	0xbda94190	-0.08264458
110	0x3baeab11	0.0053304513
111	0xbd714d96	-0.058911882
112	0x3c923178	0.017845854
113	0xbdf23f4b	-0.118284784
114	0x3eb7097c	0.35749424
115	0x3ea583a3	0.32326993
116	0x3aedf048	0.0018153274
117	0xbed65dbe	-0.41868395
118	0x3e5a63ec	0.2132718
119	0xbb81cdd3	-0.0039613037
120	0xbe0b4cfd	-0.13603587
121	0x3df519fd	0.119678475
122	0xbdec42d4	-0.11536184
123	0x3db3265a	0.08747549
124	0xbe4fe7dc	-0.20303291
125	0x3d8b55e5	0.068034925
126	0x3dd520f1	0.10406674
127	0xbd8bd210	-0.068271756
128	0xbed3de5d	-0.41380587
129	0xbea6493b	-0.32477745
130	0xbe256d91	-0.16155078
131	0x3e146af1	0.1449392
132	0x3e8eb4eb	0.27872404
133	0x3efee9cd	0.4978775
134	0x3e0831e2	0.13300279
135	0x3df58ab1	0.11989344
136	0xbc6b8e7e	-0.0143772345
137	0xbe1b9f98	-0.15197599
138	0xbe4ec059	-0.20190562
139	0xbe6ac7ab	-0.2292773
140	0xbd31416c	-0.04327528
141	0x3db7f31e	0.08981918
142	0x3e61c412	0.22047451
143	0xbe5a0dad	-0.2129428
144	0xbdaffa4a	-0.08592661
145	0xbd61b78f	-0.055106696
146	0xbebc5c0b	-0.36788973
147	0x3dc17132	0.094454184
148	0xbe00b838	-0.12570274
149	0x3ea6abd1	0.3255296
150	0xbd87b702	-0.06626703
151	0xbe25ac3b	-0.16178982
152	0xbd106ba1	-0.035258893
153	0xbdc66a23	-0.09688213
154	0xbdadfe2e	-0.084957466
155	0xbe42f7a7	-0.19039784
156	0x3de52705	0.11189083
157	0xbe1570b3	-0.14593773
158	0x3dbd53e6	0.09244518
159	0x3d5bfa47	0.05370548
160	0x3df37e11	0.1188928
161	0xbe270b1c	-0.16312832
162	0x3e134a6e	0.14383861
163	0xbdc18f83	-0.09451201
164	0x3d973cf6	0.07384674
165	0x3e405ee1	0.18786193
166	0xbdcebbde	-0.100944266
167	0xbc469705	-0.012120967
168	0xbd4b8646	-0.0496886
169	0xbe2b98d7	-0.16757523
170	0x3dba329d	0.09091685
171	0xbe56b0c5	-0.2096587
172	0x3d87cb2b	0.06630548
173	0x3e194525	0.14967783
174	0x3dee144e	0.116249666
175	0xbd413b87	-0.04717591
176	0xbe2845b3	-0.16432838
177	0x3d382e53	0.044966053
178	0x3de24633	0.11048546
179	0xbe4bd6d8	-0.19906175
180	0xbd39f1ed	-0.045396734
181	0xbdf58977	-0.1198911
182	0xbc8f4cf3	-0.017492747
183	0xbdc99c53	-0.098442696
184	0xbda76e63	-0.081753515
185	0xbd8207fa	-0.06349178
186	0xbe429f4d	-0.19006081
187	0x3e280a3a	0.16410151
188	0x3e2bb0b3	0.16766624
189	0xbd0081d3	-0.03137381
190	0xbcba959a	-0.022776414
191	0xbda72a7a	-0.08162399
192	0xbe38f280	-0.18061256
193	0xbe474ccb	-0.19462888
194	0x3d983b37	0.07433169
195	0xbde0e3aa	-0.109809235
196	0xbe03a945	-0.1285754
197	0xbc7faa9a	-0.015604639
198	0xbd8866c0	-0.06660223
199	0xbd84839d	-0.06470416
200	0x3bdd10fb	0.006746409
201	0xbd7042d0	-0.058657467
202	0xbdec9be6	-0.11553173
203	0xbe027d0e	-0.12743017
204	0xbe6c24c0	-0.23060894
205	0x3e24bfad	0.16088744
206	0xbda3a28e	-0.07989989
207	0xbc77d873	-0.015127289
208	0xbda72eae	-0.081632
209	0x3baedba7	0.005336243
210	0x3df1417e	0.1178007
211	0x3cac14bb	0.021005979
212	0xbe34a772	-0.17642
213	0x3da1e855	0.07905642
214	0x3e1d0eeb	0.15337722
215	0x3d01b84e	0.031669907
216	0x3de8a78d	0.11360083
217	0x3ddc432c	0.107549995
218	0xbd8e9a7a	-0.06963058
219	0x3d3ae63c	0.045629725
220	0xbe24c547	-0.1609088
221	0xbd9aecbf	-0.07564687
222	0x3e02f566	0.12788925
223	0x3dabeea2	0.08395125
224	0xbe110e49	-0.14165606
225	0xbdc7b687	-0.09751611
226	0xbe133071	-0.14373948
227	0xbe67cbaa	-0.22636285
228	0xbe3fed00	-0.18742752
229	0x3c8c1cdf	0.01710361
230	0x3e0c18bd	0.13681312
231	0x3d8ae553	0.067820214
232	0xbe3c17e6	-0.18368492
233	0xbe343d1d	-0.17601438
234	0x3e876f4a	0.26452094
235	0xbe2976c8	-0.16549218
236	0xbd16249e	-0.036656015
237	0x3dcf070a	0.101087645
238	0xbd9d0dee	-0.076686725
239	0xbc2b6e0a	-0.010463247
240	0xbd190698	-0.037359804
241	0x3da7bf15	0.08190743
242	0xbe172bba	-0.14762774
243	0xbe09ca6e	-0.13456127
244	0xbcb2ede5	-0.021841953
245	0xbdee6682	-0.116406456
246	0x3e913027	0.2835705
247	0xbd7522e5	-0.05984773
248	0xbe1e6cec	-0.15471238
249	0x3d692a23	0.05692495
250	0x3e0172ec	0.12641495
251	0x3de897b6	0.113570616
252	0x3e2bfdfe	0.16796109
253	0x3e45c6ea	0.19314161
254	0xbe3d9e74	-0.18517476
255	0x3d501893	0.050804686

bias f4 [15]
0	0x3d5d9d88	0.05410531
1	0xbdbd7da0	-0.09252477
2	0xbea9fe7e	-0.33201975
3	0xbe381b83	-0.17979245
4	0xbe08cc87	-0.13359271
5	0x3bddbab7	0.006766643
6	0xbe03b8ec	-0.12863511
7	0xbdf113a7	-0.117713265
8	0xbda72a4b	-0.081623636
9	0x39d0d4ea	0.00039831485
10	0xbe1584b0	-0.14601398
11	0x3ca1696b	0.019703588
12	0xbcb673d8	-0.022272035
13	0x3e2651be	0.1624212
14	0xbce1ac96	-0.027548116

weight f4 [5, 15]
0	0xbd46228b	-0.048372786
1	0xbd4c4ce2	-0.04987801
2	0x3e81d486	0.25357455
3	0x3e53f958	0.20700586
4	0x3f1eb3d2	0.61993134
5	0xbf224298	-0.63382864
6	0x3d1935ca	0.037404813
7	0x3e75d3cf	0.2400658
8	0xbcba2125	-0.022720883
9	0xbdef0a77	-0.11671918
10	0x3e32d4da	0.17464009
11	0x3d81ae75	0.06332103
12	0x3e6ecb09	0.2331964
13	0xbe0d664d	-0.13808556
14	0x3e9394cb	0.28824458
15	0x3f07ee1e	0.53097713
16	0xbf5ae002	-0.8549806
17	0xbd32039c	-0.043460473
18	0xbf5ef7c8	-0.87096834
19	0xbfc53208	-1.5405893
20	0x3fb817c5	1.4382254
21	0xbe716182	-0.23572353
22	0x3da49561	0.08036304
23	0xbe0f8225	-0.1401449
24	0xbd961317	-0.0732786
25	0xbf7a1e96	-0.9770292
26	0x3e874cde	0.26425833
27	0xbf2c94ff	-0.6741485
28	0x3fa4c492	1.2872488
29	0xbf1cbf7a	-0.6122967
30	0xbcf4a0f9	-0.029861914
31	0x3e25c0b6	0.16186795
32	0xbcc71aed	-0.024304831
33	0x3e25cfc1	0.16192533
34	0x3e3e7d0a	0.18602386
35	0xbe6462fa	-0.22303382
36	0x3dcb78d1	0.09935153
37	0x3d47a63e	0.048742525
38	0x3d636eb9	0.055525515
39	0x3d1b1c86	0.037869
40	0x3d911250	0.07083571
41	0xbdfe5e4f	-0.12420332
42	0xbd07f76d	-0.033194948
43	0x3e7b95a4	0.24568802
44	0x3e3131c9	0.17304148
45	0xbdd5ef4b	-0.10446032
46	0xbf80e0dd	-1.0068623
47	0x3f43cf00	0.7648773
48	0xbeacd267	-0.33754274
49	0x3fda011f	1.7031592
50	0xbfe3c02e	-1.7793024
51	0xba17077c	-0.0005761308
52	0xbd6ab903	-0.057305347
53	0x3d2a4c8b	0.041576903
54	0x3e23cf25	0.15996988
55	0x3e168660	0.14699697
56	0x3da1f680	0.07908344
57	0x3f109f39	0.56492954
58	0x3f722588	0.9458852
59	0x3f5d4c8a	0.86444914
60	0xbd6bbb00	-0.057551384
61	0x3dfdfbbb	0.124015294
62	0xbd905df3	-0.070491694
63	0x3df6fa73	0.12059488
64	0xbd66f542	-0.05638624
65	0xbe323ff1	-0.17407204
66	0x3dd73dd9	0.105098434
67	0x3d222581	0.039586548
68	0x3debc2c4	0.11511758
69	0x3e837a6c	0.25679338
70	0x3e34698c	0.17618388
71	0x3e7aa433	0.244767
72	0x3c62c0b6	0.013839891
73	0xbe62d398	-0.22151029
74	0xbe39702b	-0.18109195

bias f4 [5]
0	0xbc90c49c	-0.017671876
1	0x3e48ac84	0.1959706
2	0xbe0384f0	-0.1284368
3	0xbe0916cd	-0.13387604
4	0xbe72e039	-0.23718347

weight f4 [50, 5]
0	0xbe88d2d6	-0.26723355
1	0xbee1aa0f	-0.44075057
2	0xbe8c8bc3	-0.2745038
3	0x3e2ee3d0	0.17079091
4	0x3ebef9ed	0.37300053
5	0xbe0816c2	-0.13289931
6	0xbe058533	-0.13039093
7	0x3e74956d	0.23885126
8	0xbe61d9d8	-0.22055757
9	0xbe587462	-0.21138147
10	0x3e8cbaeb	0.27486357
11	0xbec6bdab	-0.3881658
12	0x3d5f0598	0.054448694
13	0x3ec9682d	0.39337292
14	0x3d9e03e6	0.07715587
15	0x3df8606f	0.12127768
16	0xbe84dbf7	-0.2594907
17	0xbbce1486	-0.0062890677
18	0x3cc37297	0.023858352
19	0x3de1178c	0.10990819
20	0x3e31a818	0.17349279
21	0x3ec74b40	0.389246
22	0xbeaedfdd	-0.3415517
23	0x3c540326	0.012940204
24	0xbe651b9b	-0.22373812
25	0xbeb4eb2e	-0.35335678
26	0xbd152d9c	-0.03642045
27	0xbec97741	-0.39348796
28	0x3ea054c4	0.3131467
29	0x3d53a79a	0.05167351
30	0xbe766fc8	-0.24066079
31	0x3e6ec95b	0.23318999
32	0xbed89664	-0.4230224
33	0xbe3013c3	-0.17195038
34	0xbdb21bf5	-0.08696739
35	0xbec260ab	-0.37964377
36	0xbe922d26	-0.2855007
37	0xbd953d53	-0.07287087
38	0x3eae1e7b	0.3400763
39	0x3edd0a2a	0.43171817
40	0x3e91e976	0.2849843
41	0xbe894127	-0.2680752
42	0xbe95aeae	-0.29234833
43	0x3ec83990	0.39106417
44	0x3e21c3e5	0.15797384
45	0x3c41c5c9	0.011826941
46	0x3d787a23	0.060663354
47	0xbeb80670	-0.3594241
48	0xbe190097	-0.14941631
49	0x3edc69cf	0.43049476
50	0xbde3305e	-0.1109321
51	0xbcabb462	-0.020960037
52	0xbebe4b78	-0.37166953
53	0xbe80a0df	-0.25122735
54	0xbc1c84dc	-0.0095531605
55	0xbe8e1a5e	-0.27754492
56	0xbd63ef1f	-0.055647966
57	0x3e3a8b1d	0.1821713
58	0xbedf822d	-0.43654004
59	0x3e083c5f	0.1330428
60	0xbe97530e	-0.29555553
61	0xbe601426	-0.21882686
62	0x3e2fdee3	0.17174868
63	0x3eb624ab	0.3557485
64	0xbdfa59bd	-0.122241475
65	0xbe3c55b9	-0.18392076
66	0xbecef680	-0.4042244
67	0xbe6c5255	-0.23078282
68	0xbec91f6c	-0.39281785
69	0xbdd21444	-0.102577716
70	0x3dbb4771	0.09144486
71	0xbed6edb6	-0.41978234
72	0x3ec7f91c	0.39057243
73	0x3e8fa155	0.28052774
74	0xbee030d4	-0.43787253
75	0xbe5a6d8a	-0.21330848
76	0x3e148223	0.14502768
77	0xbdbbe2f3	-0.091741465
78	0xbd470acf	-0.048594292
79	0xbe4e987e	-0.20175359
80	0x3eb804cc	0.3594116
81	0xbe802cc9	-0.25034168
82	0x3ebde253	0.37086734
83	0x3cf19067	0.029487802
84	0x3db7db95	0.08977429
85	0x3eb2b1a2	0.34901148
86	0xbd980550	-0.07422888
87	0xbe825d4c	-0.25461805
88	0xbd93cc69	-0.072167225
89	0x3eb9b599	0.3627136
90	0xbeaa3b19	-0.33248213
91	0x3dd37485	0.10324959
92	0xbee12fce	-0.43981785
93	0x3e6f18a0	0.23349237
94	0x3e2896f2	0.16463831
95	0x3c9e4e02	0.019324306
96	0x3e437742	0.19088462
97	0x3a1c0d02	0.0005952866
98	0x3e7dfd6c	0.24803704
99	0xbeb52ca2	-0.35385615
100	0xbd8702a9	-0.06592304
101	0x3e4be4fb	0.19911568
102	0x3ee3f392	0.44521767
103	0x3e68d610	0.22737908
104	0xbea6892b	-0.32526526
105	0x3eb02159	0.34400442
106	0xbdcc4d13	-0.09975638
107	0xbdc3804f	-0.09545957
108	0xbecff897	-0.40619346
109	0xbd901a3f	-0.07036256
110	0x3ea20916	0.31647557
111	0x3d7e1308	0.06202987
112	0xbe855dc6	-0.26048106
113	0x3e0d65d1	0.13808371
114	0xbe12ea3d	-0.14347167
115	0x3ed1014c	0.40821302
116	0xbec6a954	-0.38801062
117	0xbe10ae9d	-0.1412911
118	0xbedd4b5d	-0.4322156
119	0xbe345a66	-0.1761261
120	0x3e107551	0.14107253
121	0x3edc12f5	0.42983213
122	0x3d99d118	0.075105846
123	0x3ee04ca6	0.43808478
124	0x3db3f75e	0.08787416
125	0x3e843890	0.25824404
126	0x3eb79cea	0.35861903
127	0x3ebf6778	0.37383628
128	0xbe803761	-0.2504225
129	0x3ed2835e	0.4111585
130	0x3e8a7679	0.27043512
131	0xbe54d619	-0.20784797
132	0xbe5ad32a	-0.21369615
133	0xbec068e8	-0.37580037
134	0x3de5d503	0.112222694
135	0xbeb99564	-0.36246789
136	0x3e41daf6	0.18931183
137	0x3e10ab1b	0.14127772
138	0xbec6b8a1	-0.38812736
139	0x3df99931	0.12187422
140	0xbd15c704	-0.03656675
141	0x3e521bbe	0.20518395
142	0x3e835a66	0.25654906
143	0xbee393f8	-0.4444883
144	0x3ed1d990	0.409863
145	0x3ec0538a	0.37563735
146	0x3e34f829	0.1767279
147	0xbed12821	-0.40850928
148	0xbe2210e2	-0.15826753
149	0xbe047922	-0.12936834
150	0xbdebfadf	-0.11522459
151	0x3e81f8e3	0.25385198
152	0x3e2679ff	0.16257475
153	0x3eb5925b	0.35463223
154	0xbe2c2390	-0.16810441
155	0x3e1ab8e4	0.15109593
156	0x3e21acb0	0.15788531
157	0xbebe732e	-0.3719725
158	0xbedd799c	-0.43256843
159	0xbe6d0cb3	-0.23149376
160	0x3e9cb5f6	0.30607575
161	0xbed795ed	-0.42106572
162	0xbec74e60	-0.38926983
163	0x3e801a37	0.2502
164	0x3e772532	0.24135283
165	0x3ebc47a9	0.36773422
166	0xbeac85c8	-0.33695817
167	0xbea79598	-0.32731318
168	0x3e6b2864	0.22964627
169	0x3ec71f9b	0.388913
170	0x3e88d0c1	0.26721767
171	0x3d922aae	0.07137047
172	0x3e16e038	0.1473397
173	0x3ed91886	0.42401522
174	0xbe93c601	-0.28862002
175	0xbe501e68	-0.20324099
176	0x3e9ff2d8	0.31239963
177	0xbe9cbee1	-0.3061438
178	0xbe7dee57	-0.2479795
179	0x3ea73345	0.32656303
180	0x3e10d895	0.1414512
181	0x3e14709b	0.1449608
182	0xbe41dfca	-0.18933025
183	0xbb8598c7	-0.0040770504
184	0x3ed1858e	0.40922207
185	0xbe89ab02	-0.2688828
186	0x3b90ebd1	0.0044226428
187	0x3e598b7a	0.21244612
188	0xbe9e91a2	-0.30970484
189	0x3ede31aa	0.43397266
190	0xbe643271	-0.22284867
191	0xbdde186b	-0.10844501
192	0xbdf7473f	-0.12074136
193	0xbe947070	-0.28992033
194	0xbee090b7	-0.4386041
195	0x3e8160b8	0.25269103
196	0x3df216b2	0.11820735
197	0xbed650ff	-0.4185867
198	0xbe929f14	-0.28636992
199	0x3ee26fc8	0.44225907
200	0x3e2f2839	0.17105187
201	0x3e373086	0.17889604
202	0xbe88fe37	-0.2675645
203	0xbe4911d1	-0.19635703
204	0xbd89d532	-0.06730117
205	0xbda6c696	-0.08143346
206	0xbe9d8b43	-0.3077031
207	0x3d17834d	0.036990453
208	0x3d380833	0.044929694
209	0xbd684bf9	-0.05671308
210	0x3d7d779d	0.06188165
211	0xbe3504bd	-0.17677589
212	0x3dee43aa	0.11634
213	0x3e2cb700	0.16866684
214	0xbe715bd5	-0.23570187
215	0xbee30b99	-0.44344786
216	0x3e6ff21d	0.23432203
217	0x3dda7ee0	0.10668731
218	0xbe68b597	-0.22725521
219	0x3edca5bf	0.43095204
220	0xbe4f4af0	-0.2024343
221	0x3e9ab11d	0.30213252
222	0x3e68342f	0.22676156
223	0xbec078a1	-0.37592033
224	0x3e93a717	0.28838417
225	0xbed2b964	-0.41157067
226	0xbe7c88a7	-0.24661504
227	0xbd9913e6	-0.074744985
228	0xbe9a8167	-0.3017685
229	0x3edf8fdb	0.4366444
230	0xbdb6f7bc	-0.0893397
231	0x3e35c9f8	0.17752826
232	0xbecc5a86	-0.39912814
233	0x3e847825	0.25872913
234	0xbe0e7dcd	-0.13915177
235	0xbeae57fe	-0.34051508
236	0x3d88a8b0	0.066727996
237	0x3e5dc16d	0.21655817
238	0x3ec6008a	0.38672286
239	0xbe8bf4af	-0.27335116
240	0xbe61788a	-0.22018638
241	0x3db24a0b	0.08705529
242	0x3df87d06	0.12133221
243	0x3e30d0dd	0.17267175
244	0x3e7aad0d	0.24480076
245	0xbdcff4b9	-0.10154099
246	0x3e7ed589	0.24886145
247	0x3ea8cb83	0.32967767
248	0xbdefbe48	-0.11706215
249	0x3ea2db44	0.3180791

bias f4 [50]
0	0x3e5f7c21	0.21824695
1	0x3ec9dcac	0.39426172
2	0xbe82d711	-0.25554708
3	0xbe62bd16	-0.22142443
4	0xbe039ded	-0.12853213
5	0x3cbb46aa	0.022860844
6	0x3e8925c1	0.26786616
7	0xbe826c94	-0.25473464
8	0x3e661589	0.22469153
9	0xbe24086f	-0.16018842
10	0x3e8ad4a1	0.27115348
11	0xbcb4c46e	-0.022066321
12	0xbec87d2b	-0.39157996
13	0xbe7aff2a	-0.245114
14	0xbea56c17	-0.32309029
15	0x3e62d02c	0.22149724
16	0xbe99679d	-0.29961863
17	0xbd17436d	-0.036929537
18	0x3dc8b56c	0.098002285
19	0xbe7b68d9	-0.24551715
20	0x3e042bf2	0.12907389
21	0xbedfa957	-0.43683884
22	0xbea3bac6	-0.31978434
23	0xbecf6a5d	-0.40510836
24	0xbe0b5a76	-0.13608727
25	0xbe26c4d3	-0.1628602
26	0x3d82fcfd	0.0639591
27	0xbdaa0368	-0.08301431
28	0x3e57ca04	0.21073157
29	0x3ed1864e	0.4092278
30	0x3e258200	0.16162872
31	0xbe36091c	-0.17776912
32	0xbed67406	-0.41885394
33	0x3e25831c	0.16163296
34	0xbe62efa2	-0.22161725
35	0x3e6954f4	0.22786313
36	0x3e98b7c9	0.29827717
37	0x3e31c0f4	0.17358762
38	0x3ed67136	0.41883248
39	0x3ed8ecce	0.42368168
40	0x3dc14493	0.094369076
41	0xbea684c2	-0.3252316
42	0x3eccb634	0.3998276
43	0xbe5943f6	-0.21217331
44	0xbe57ed30	-0.21086574
45	0x3ebfd5f8	0.37467933
46	0x3eb1731e	0.3465814
47	0x3e0a9fa3	0.13537459
48	0x3cf18c75	0.02948592
49	0xbec082a4	-0.3759967

weight f4 [30, 50]
0	0xbc5b4cae	-0.013384981
1	0x3e0ad2fb	0.13557045
2	0x3d16d38a	0.036822833
3	0x3c4b84e5	0.012421821
4	0xbcfb6873	-0.030689454
5	0xbd4b696f	-0.049661096
6	0x3da7b79b	0.08189317
7	0x3c11ed03	0.008906606
8	0x3dbe92d7	0.09305351
9	0xbccd4b81	-0.025060417
10	0x3d79fa71	0.061029855
11	0x3d6ee0ba	0.058319785
12	0x3cb9d633	0.022685146
13	0x3db6f7f4	0.08934012
14	0x3db7278c	0.0894309
15	0x3e0452b4	0.12922174
16	0x3ddf8c53	0.109154366
17	0xbd13753a	-0.036000468
18	0xbdf740ea	-0.12072928
19	0x3ccf85f4	0.025332429
20	0xbb361c76	-0.002778796
21	0xbd16e080	-0.036835194
22	0xbcc217c5	-0.023692975
23	0x3be95da7	0.00712176
24	0x3dd143e4	0.10218027
25	0x3d3383fd	0.043827046
26	0xbd4aaeec	-0.049483225
27	0xbd71aaf5	-0.059000928
28	0xbd125c1d	-0.035732377
29	0xbd667e8b	-0.056273025
30	0x3e005d20	0.12535524
31	0x3d97f6b0	0.07420099
32	0x3e0345ff	0.1281967
33	0x3ae7c0db	0.0017681377
34	0x3ce84b38	0.02835618
35	0x3d413043	0.047165167
36	0xbe09d154	-0.13458759
37	0x3c4d74ed	0.012540084
38	0xbc2ba0ed	-0.010475379
39	0xbda3d13b	-0.07998892
40	0xbde2e934	-0.11079636
41	0x3e006c6b	0.12541358
42	0x3dec5d2f	0.11541211
43	0x3d8550b6	0.06509535
44	0x3e098cee	0.13432667
45	0xbd68fa4c	-0.056879327
46	0xbcda65c2	-0.02665985
47	0x3d564114	0.052308157
48	0xbcc18e7c	-0.023627512
49	0xbce3c3e8	-0.027803376
50	0xbdef3ffa	-0.116821244
51	0x3d1c502c	0.038162395
52	0xbdaf0828	-0.085464776
53	0x3ba88649	0.005142961
54	0x3e0d310a	0.13788238
55	0xbd32488a	-0.04352621
56	0xbd36145a	-0.044453003
57	0x3daebcf2	0.08532132
58	0xbd54c95c	-0.051949844
59	0xbc46fb69	-0.012144902
60	0x3e075741	0.13216878
61	0xbd6d5a94	-0.05794771
62	0xbdcf3477	-0.10117429
63	0xbda211e0	-0.07913566
64	0xbd209915	-0.03920849
65	0xbd89434d	-0.0670229
66	0xbd964c77	-0.07338803
67	0x3d69fd5a	0.05712638
68	0x3cc50256	0.024048965
69	0xbd396644	-0.045263544
70	0xbde10228	-0.109867394
71	0xbd3662e6	-0.04452791
72	0xbd7478a1	-0.059685353
73	0xbd3c80b7	-0.04602119
74	0xbe02a431	-0.12757947
75	0x3cf99467	0.030466272
76	0xbdd4a874	-0.103836924
77	0xbde19031	-0.110138305
78	0xbdec855a	-0.11548872
79	0x3d7269e4	0.059183016
80	0xbdae5923	-0.08513095
81	0xbd6f0df6	-0.058362924
82	0x3de30647	0.11085182
83	0x3d99d30e	0.075109586
84	0x3da61264	0.081089765
85	0xbe096f56	-0.13421378
86	0xbdcf94df	-0.10135817
87	0xbd5a6f0d	-0.053328563
88	0x3defb674	0.11704722
89	0x3c6f675a	0.014612043
90	0xbdd8857a	-0.10572334
91	0x3a6824a7	0.0008855559
92	0xbde0ac19	-0.10970325
93	0xbcfdd4ed	-0.03098532
94	0xbd1f4857	-0.038887348
95	0x3dfb0d60	0.122584105
96	0x3d33d3ac	0.043903038
97	0xbcc9e738	-0.024646387
98	0x3cc3b53d	0.023890132
99	0xbd273684	-0.040823475
100	0x3d639798	0.055564493
101	0x3d652293	0.055941176
102	0x3d1b8ea5	0.037977833
103	0xbd61c86e	-0.055122785
104	0x3df7194f	0.12065374
105	0xbca74211	-0.020417245
106	0xbd61842e	-0.055057697
107	0x3db56662	0.088574186
108	0x3dec10b6	0.11526625
109	0x3e101d52	0.14073685
110	0x3d2b9c75	0.041897256
111	0xbd457782	-0.048209675
112	0x3d9319e9	0.07182676
113	0x3df87d7c	0.12133309
114	0xbe0e0a3c	-0.13871092
115	0xbc8f86a6	-0.01752026
116	0xbdc584b0	-0.09644449
117	0x3cd7e6f8	0.026355252
118	0x3d6f92e9	0.058489714
119	0xbcef56d3	-0.029216206
120	0xbc41d7de	-0.011831252
121	0x3d825db3	0.06365528
122	0xbcc2b682	-0.023768667
123	0xbdf339e4	-0.11876276
124	0x3de7be75	0.11315624
125	0xbd91c684	-0.07117942
126	0xbc7e8c23	-0.015536341
127	0x3c5a8f07	0.013339764
128	0xbc0b3f4e	-0.00849898
129	0xbe0839d4	-0.1330331
130	0x3d84e1e9	0.064884014
131	0xbd838f3b	-0.064238034
132	0xbd96384a	-0.07334955
133	0x3d0a64e3	0.03378762
134	0xbd9725d2	-0.073802605
135	0xbd85db11	-0.06535924
136	0xbd432ea9	-0.04765192
137	0xbd599d9f	-0.053128835
138	0xbd71ebe6	-0.05906286
139	0xbd1c3800	-0.038139343
140	0x3d168940	0.036751986
141	0xbdea5fe3	-0.1144407
142	0xbdaf4edd	-0.08559964
143	0x3b073c84	0.0020635435
144	0x3ca11d1e	0.019667204
145	0x3d9ff604	0.07810596
146	0xbdcb731d	-0.099340655
147	0x3d38e584	0.04514076
148	0x3da49f8f	0.08038246
149	0x3da0d20f	0.078525655
150	0xbe06cfc2	-0.13165191
151	0xbd5c0aa1	-0.053721074
152	0xbdf8a030	-0.12139928
153	0xbdb74822	-0.08949305
154	0x3da188b5	0.07887403
155	0xbcab1aa4	-0.020886727
156	0x3d764d6a	0.06013242
157	0xbdaa0369	-0.08301432
158	0x3cb522de	0.022111353
159	0xbdaf2f82	-0.08553983
160	0x3d90bb6a	0.070669964
161	0xbd7d5f79	-0.061858628
162	0xbd110cf0	-0.03541273
163	0xbdfb4afa	-0.1227016
164	0x3a2cbf85	0.0006589818
165	0x3e09c43d	0.13453765
166	0x3d8c949f	0.06864285
167	0xbd9a87ad	-0.07545409
168	0x3b08843c	0.002083077
169	0xbc78e9f8	-0.015192501
170	0xbde79ae7	-0.11308842
171	0x3de318d9	0.11088724
172	0x3b16aa8c	0.0022989837
173	0x3cf3fb50	0.029782921
174	0xbd6795d2	-0.056539364
175	0xbd878a34	-0.06618157
176	0x3cbf074c	0.02331891
177	0x3d5601ef	0.052247938
178	0x3d01c2bf	0.031679865
179	0xbd8ab95f	-0.06773638
180	0x3e0d7469	0.13813938
181	0xbcaab84c	-0.020839833
182	0xbdb15e48	-0.08660561
183	0xbd87110b	-0.065950476
184	0x3e0f2d47	0.13982116
185	0xb880f69b	-6.1494495e-05
186	0xbc9bfc99	-0.019041346
187	0xbd711bf1	-0.058864538
188	0xbd16f0ba	-0.03685067
189	0xbdf3ef8d	-0.11910925
190	0xbde62d93	-0.11239161
191	0x3da98498	0.082772434
192	0x3df97390	0.12180245
193	0x3e0a2f57	0.13494621
194	0xbdd123c8	-0.10211903
195	0x3d9ca567	0.076487355
196	0xbdb1abb1	-0.08675326
197	0x3dae6a64	0.08516386
198	0x3dd134cd	0.10215149
199	0x3de0225e	0.10944055
200	0x3dcf3fa8	0.10119563
201	0x3db6510a	0.08902176
202	0x3b163de8	0.0022925083
203	0x3d84bd20	0.06481385
204	0xbd4bf170	-0.0497908
205	0x3d7c974c	0.061667725
206	0xbd32bd53	-0.043637585
207	0xbb22f98a	-0.0024867975
208	0xbdfd564f	-0.12369978
209	0xbd173b72	-0.036921926
210	0xbd96592e	-0.073412284
211	0xbd41bbf5	-0.04729839
212	0xbdb9221a	-0.090397075
213	0xbe025a79	-0.12729825
214	0x3c0f6deb	0.008754234
215	0x3dbe9a22	0.09306742
216	0x3e03a8ca	0.12857357
217	0x3da8d84c	0.0824438
218	0xbd95242f	-0.07282292
219	0xbe0f0ce2	-0.13969758
220	0x3d5e5cd5	0.05428775
221	0x3da2514f	0.07925665
222	0xbdf8a6d3	-0.12141194
223	0x3d4ee6d2	0.050513096
224	0x3df58c53	0.11989655
225	0x3c1068df	0.008814066
226	0xbdaeb5cb	-0.08530768
227	0x3def3501	0.116800316
228	0x3d7b234e	0.061312966
229	0x3dc2974a	0.09501512
230	0xbdc2587e	-0.09489535
231	0x3daa2279	0.083073564
232	0xbdc6651c	-0.09687254
233	0x3e0e9aa7	0.13926183
234	0xbd75a402	-0.059970863
235	0x3db1a31a	0.08673687
236	0x3cec728e	0.028863218
237	0x3d1b2678	0.037878484
238	0xbca73842	-0.020412568
239	0x3d71ddf0	0.059049547
240	0xbd6db0a4	-0.058029786
241	0xbe089f60	-0.13342047
242	0xbd5f4b9f	-0.054515477
243	0x3de3d0f2	0.111238375
244	0xbd15f7da	-0.036613323
245	0x3d36fae1	0.04467285
246	0xbd5140e4	-0.051087275
247	0x3dda23b2	0.106513396
248	0x3dad7f7c	0.08471581
249	0x3d4cb592	0.049977846
250	0xbd91d25b	-0.071202
251	0xbdec958e	-0.11551963
252	0x3bd35cb2	0.006450259
253	0xbda92f5d	-0.08260987
254	0x3ded64b9	0.11591477
255	0xbe0af92b	-0.13571613

bias f4 [30]
0	0x3df65608	0.12028128
1	0xbba687ef	-0.0050821225
2	0xbde86e83	-0.113492034
3	0xbd3626b9	-0.044470523
4	0xbd1538f6	-0.036431275
5	0x3b32e0b4	0.0027294578
6	0xbe041fd9	-0.12902774
7	0x3cd7b3ee	0.026330914
8	0xbd837e49	-0.06420571
9	0xbd14509d	-0.03620969
10	0xbd96108c	-0.07327375
11	0xbcfe5d78	-0.031050429
12	0xbe056e46	-0.13030347
13	0xbd9c734f	-0.07639181
14	0x3c5a8e62	0.013339611
15	0x3dbd5cfd	0.09246252
16	0x3e01dafd	0.12681194
17	0xbdde3040	-0.10849047
18	0x3d798279	0.060915444
19	0xbda03515	-0.078226246
20	0xbde1bde8	-0.1102255
21	0xbbdc71a5	-0.0067274147
22	0xbda62555	-0.08112589
23	0xbdf96bf5	-0.12178794
24	0xbe028775	-0.12746985
25	0xbdbc139d	-0.091834284
26	0x3de9f574	0.114237696
27	0x3da7a0f9	0.08185
28	0xbd6540a5	-0.055969853
29	0xbdc3fef1	-0.095701106

weight f4 [3, 30]
0	0xbe0bd713	-0.13656263
1	0xbddcd208	-0.10782248
2	0xbd99dd37	-0.075128965
3	0x3de20b35	0.11037294
4	0x3d70b32a	0.058764614
5	0xbd914277	-0.07092755
6	0x3e006873	0.12539844
7	0xbde7fd82	-0.1132765
8	0xbe156907	-0.14590846
9	0x3d233672	0.039846845
10	0xbdce30c1	-0.10067893
11	0x3d4e4105	0.050354976
12	0x3e1fb7f9	0.15597524
13	0xbdb0ab46	-0.08626418
14	0xbe025f39	-0.12731637
15	0x3d900b42	0.07033397
16	0xbe29e544	-0.16591364
17	0x3e2958c3	0.16537766
18	0xbdb4bc48	-0.08824974
19	0x3db53458	0.088478744
20	0xbe13cd57	-0.144338
21	0xbdfcf4ba	-0.123513654
22	0x3ca4c0a5	0.020111391
23	0x3d84c76e	0.06483351
24	0x3e125bd5	0.14292844
25	0x3e1d2523	0.15346198
26	0xbc46a316	-0.012123844
27	0xbcc2d609	-0.0237837
28	0x3cf73bb2	0.030179832
29	0xbd2c0b9e	-0.042003267
30	0x3c062a90	0.008188859
31	0xbe310eb2	-0.17290762
32	0xbe19793a	-0.1498765
33	0x3e001ff0	0.12512183
34	0xbde2603d	-0.11053512
35	0x3e143700	0.14474106
36	0x3ca5a3f8	0.020219788
37	0x3d27a908	0.040932685
38	0x3e27db20	0.16392183
39	0xbdcff757	-0.10154598
40	0xbcea7bde	-0.028623518
41	0x3d0667af	0.032813724
42	0x3d801b95	0.06255261
43	0xbe317c5d	-0.17332597
44	0x3d81abd8	0.06331605
45	0xbddbb41a	-0.10727711
46	0x3c90b4b4	0.017664291
47	0x3df2e66d	0.118603565
48	0xbc9fc28d	-0.019501949
49	0xbbd8c826	-0.0066156564
50	0xbc2460c4	-0.010032836
51	0x3e1bfe68	0.15233767
52	0x3dd48152	0.103762284
53	0x3cf75961	0.030193986
54	0xbde8d303	-0.11368372
55	0xbdcc22e2	-0.09967591
56	0x3e0ec0ae	0.13940689
57	0x3e08eeee	0.13372394
58	0x3dd87fae	0.10571228
59	0xbe0f933b	-0.14021008
60	0x3e130534	0.14357454
61	0xbc8ee9fd	-0.017445559
62	0x3e09bdba	0.13451281
63	0x3e226e4d	0.15862389
64	0x3c8e13d6	0.017343443
65	0xbd9b083d	-0.07569931
66	0x3e2ff37c	0.17182726
67	0xbdc88d56	-0.09792583
68	0x3df18165	0.11792258
69	0xbe33452d	-0.17506857
70	0xbd6aee5f	-0.057356235
71	0xbe22769d	-0.1586556
72	0xbda761aa	-0.08172925
73	0x3da35add	0.07976315
74	0xbe071177	-0.13190256
75	0xbe20cdb6	-0.15703472
76	0x3e016ffa	0.12640372
77	0x3dc11aa0	0.094289064
78	0xbb3b179c	-0.0028548008
79	0xbe04ad9c	-0.12956852
80	0xbd3e04b3	-0.0463912
81	0xbd723e02	-0.059141167
82	0x3de6eca7	0.112756066
83	0xbd75bf29	-0.059996758
84	0xbd628f43	-0.055312406
85	0xbe051290	-0.12995362
86	0xbdb848de	-0.08998273
87	0x3dcd7bbd	0.10033367
88	0x3df0e7f3	0.11762991
89	0x3ce243cc	0.027620219

bias f4 [3]
0	0xbd80a22d	-0.062809326
1	0x3e28efd3	0.16497736
2	0x3d019450	0.031635582
