control_allocation/src/model.pt (torch, 16338 bytes, 12 tensors)

weight f4 [25, 3]
00000000: 0900 e23e 655a f53e e280 0abe b4c5 073f
00000010: 1689 01be 9a99 ee3d 7dea 8fbe 4b9a ad3e
00000020: 244b 023f e9dc d8be f977 003f b64c dd3d
00000030: f564 da3e 8a22 a03d 5289 8e3e 35f2 a6bd
00000040: 5de0 e33e 6fc5 ae3d dbff 89be 95b2 163e
00000050: fe31 88be 3caa 8abd 9e1f 70be 3c18 c43e
00000060: 2857 e9be b546 88be 1cf1 26be f7bc b1be
00000070: 2133 5f3d 0afb 11bf 257b 053f 0b1b fbbe
00000080: c036 e43e b6c6 c43d adf7 3fbe 07ab b63e
00000090: b047 b83d 30d6 ee3e d542 813d 6373 3abe
000000a0: fbd8 1e3e b652 20be 54d0 783e eaf5 033f
000000b0: 57e0 aa3e cb3a 81be 30a4 aa3e 9490 d33d
000000c0: 231e 963e f62b b4be 644f 12bf 3e6b 64be
000000d0: 09bc e2be d58d f23e 3a49 2a3e c4e2 743e
000000e0: c8f9 3a3e c98d 24bc 7457 e73e ba07 d2be
000000f0: f7e5 143d dbc2 c9be bd4c 363e e299 4bbe
00000100: c527 353e 8358 f6bd c62b f53e 6534 afbe
00000110: 184c b0be d14e b0be 6cf0 043f 3105 453e
00000120: e638 0e3f 54f4 f3be d799 12bf
0.44140652 0.47920528 -0.13525727 0.53036046 -0.1264995 0.11650391 -0.28108588 0.3390678
0.50895905 -0.4235604 0.50183064 0.10805647 0.4265515 0.07819088 0.27839142 -0.08151666
0.44507113 0.08533751 -0.26953015 0.14716561 -0.2660064 -0.06770751 -0.23449561 0.3829974
-0.45574307 -0.26616445 -0.16302913 -0.3471448 0.05449212 -0.5702368 0.5214103 -0.4904407
0.4457302 0.096082136 -0.18746825 0.35677359 0.08998048 0.46647787 0.06311575 -0.18208079
0.15512459 -0.15656552 0.24298221 0.5154711 0.33374283 -0.25240168 0.3332839 0.103303105
0.29319867 -0.3518979 -0.5715239 -0.22306535 -0.44284084 0.47373834 0.16629496 0.23914629
0.18259346 -0.01004357 0.4518391 -0.4102152 0.036352124 -0.39406475 0.17802711 -0.1988292
0.17690952 -0.12028601 0.4788496 -0.3421966 -0.34433055 -0.34435132 0.51929355 0.19240262
0.5555557 -0.47647345 -0.5726599

bias f4 [25]
00000000: f344 e7be 61d9 c6be 6276 6f3e 64b2 533e
00000010: c09f f53e 35a8 98be 2b84 c9be 36d7 9c3e
00000020: e8f7 6ebe a168 b33e 314b 0cbe 4319 a93e
00000030: a1ac e5be 182d 95be b73e 343e 9af8 f93d
00000040: babb 16be 3b33 b03e 31f4 c83e 195d d6be
00000050: 2fd0 9dbe 1c56 073f 0a7e 47be ab97 51be
00000060: 1903 0fbf
-0.45169792 -0.38837722 0.23385003 0.2067352 0.47973442 -0.29815832 -0.3935865 0.30632943
-0.23336756 0.35040763 -0.13700558 0.33027086 -0.44858268 -0.29135966 0.17602049 0.1220562
-0.1472005 0.34414086 0.39248803 -0.41867903 -0.30822894 0.5286577 -0.19481674 -0.20468013
-0.558641

weight f4 [15, 25]
00000000: d390 eabd a0a3 4c3d f341 d8bc 55a9 14be
00000010: cdb9 993b 25e5 0bbe 6bc0 2dbe 2a8d e1bd
00000020: 523e 33be 6a67 02be 4bb8 4c3e f3b9 1a3d
00000030: c771 7c3d 8503 3fbe dd81 06be 7756 88bd
00000040: 6719 003d 3835 34be 507c b0bd f336 f5bd
00000050: 334b 113a da69 98bd 8011 63bc 50c7 0abe
00000060: e092 0cbe 1df6 eebd 7d34 8cbd 0da5 21be
00000070: f8b7 2b3e ed94 22bd 9235 303e 803f 7f3d
00000080: 8d6c 2dbe 93ba 0d3e 0d66 61bd a702 9dbd
00000090: 9aff 29be a79a 4bbe c061 6a3d 00f3 32bd
000000a0: 7d77 9f3d 6712 28be ab0c 183e 8f55 16be
000000b0: 3a74 0dbd 271b 2b3d ed74 d33d 5056 253e
000000c0: 8090 3a3e f563 22be 732a 4e3d fa2d b0bd
000000d0: 338b b3bc 704a 19be 3a8b 3a3e 2550 16be
000000e0: 47e9 da3d 1df3 8f3d 1a1a 853d dd72 ddbd
000000f0: 3d27 3a3e 0005 343d 8dc3 d23c 227b 34be
00000100: 03f2 ab3d 33cb f5bc d0a5 bbbd 8ae9 2f3e
00000110: c0a3 363d 3d9f e2bd 8350 cfbd 677c 1cbc
00000120: 6db4 e43d 5355 51bd 1db5 e9bd bd43 8cbd
00000130: 3d00 19be a013 923d 0086 1e3e 97ce 40be
00000140: 8042 3e3d 9398 d33d 878b 143d 60de 91bd
00000150: 9ac9 d53d 0d40 d73d 1d29 993d 73f3 0fbd
00000160: daec 58bd 0d47 af3c 0db7 10bd 5a1f 74bd
00000170: dae8 023e 4a01 303e 8032 a2bc 936a 37bd
00000180: 9a43 3f3b e7a6 43bc e7f1 443d 4091 653d
00000190: d002 3abe 6a28 97bd d777 2c3e cd8f 9f3d
000001a0: e7fa 22bc 40f3 f6bd 6a98 fabd fb73 37be
000001b0: a383 85bd da52 8a3d bd95 023e 7a1c bd3d
000001c0: 2008 35be 6d51 f6bd 8d48 01bd fa1c 463e
000001d0: c001 ed3c 1a26 54bd 3075 a93d 5302 9cbd
000001e0: d78e 04be 1d7b 153e f03e babd ed38 24bd
000001f0: 65bc 4bbe 0f11 093e e029 1b3e 2a47 953d
00000200: 40cd 0ebe 1320 4abe 9255 26be 2bb8 183e
00000210: bda6 c43d 1257 2c3e bd93 d63d 4755 4f3d
00000220: cd5a 00bb 6bc0 1bbe 8a77 2fbe 358f 3fbe
00000230: b7ac a73d ba19 c9bd badd 24bd 1aba ebbd
00000240: 0d47 15bd 3825 10be cdd1 05be 67de 873d
00000250: 9a76 73bd 20dd fc3d 3d67 83bd 0d3c 16be
00000260: ed89 10bd 738d c6bd 9aa0 7abd fdf7 42be
00000270: e02a e53d 2b95 0ebe 4adf cd3d bade b93d
00000280: da50 123e 9f17 1dbe a04a 133e 9aa3 c1bd
00000290: 6dfd 973d a854 403e 0d11 e7bc 67ba caba
000002a0: da9a 3cbd 3d01 2bbe 7791 c43d 024f 4bbe
000002b0: 9747 fe3d 8b3c 193e 40ae 413e 873b 41bd
000002c0: b345 28be 532e 383d 3346 e23d d8d6 4bbe
000002d0: edf1 39bd 7789 f5bd f34c 8fbc 539c c9bd
000002e0: 636e a7bd fa07 82bd 4d9f 42be 3a0a 283e
000002f0: b3b0 2b3e d381 00bd 9a95 babc 7a2a a7bd
00000300: 80f2 38be cb4c 47be 373b 983d aae3 e0bd
00000310: 45a9 03be 9aaa 7fbc c066 88bd 9d83 84bd
00000320: 3393 d23b 33c3 2dbd c707 8dbd 701e c4bd
00000330: ffab 26be edb9 2b3e aaea a3bd 3a12 593d
00000340: 031e 8ebd 7323 853c 65ef 3e3e 47b6 bc3d
00000350: c87a 31be 4792 a23d aa67 423e 9384 573d
00000360: 904d 093e e7e8 493e e70c fbbc 5307 2a3d
00000370: db57 0ebe 80d1 28bd ebab 173e d0fa d13d
00000380: 5f98 01be df39 24be f0f3 0bbe d01c 4abe
00000390: 1b08 1ebe 0796 4abd 0037 0a3e 9a1e 093d
000003a0: a2c5 1bbe a34b 24be 10c4 cb3d b556 18be
000003b0: 67bb c9bc d37c c43d 5d91 bdbd a7a6 b2bc
000003c0: 1a9d 8ebc 20cf 41bd 2dae cfbd 0b91 36be
000003d0: 308d 25be 3a53 dbbd b7cd 453e c3d7 c5bd
000003e0: 6887 09be c091 463d adc7 613d 806c e03d
000003f0: 33ac 1b3e 7d18 e43d 350f 4bbe b34e 913c
-0.11453404 0.049960732 -0.026398635 -0.1451772 0.0046913386 -0.1366163 -0.16967933 -0.11013253
-0.17504242 -0.12734762 0.19992177 0.03777499 0.061631944 -0.18653686 -0.13135476 -0.06657117
0.031274226 -0.17598426 -0.08617461 -0.11973371 0.00055425166 -0.074420646 -0.013859153 -0.13552594
-0.13727903 -0.11668036 -0.06845949 -0.15785618 0.16769397 -0.039692808 0.17207935 0.062316418
-0.1693594 0.13840704 -0.055028964 -0.076665215 -0.1660141 -0.19883214 0.057222128 -0.043688774
0.077864625 -0.1641327 0.14848582 -0.14681076 -0.03453467 0.04177394 0.10325036 0.16146207
0.18219185 -0.15858443 0.05033345 -0.08602519 -0.021916961 -0.14969802 0.18217173 -0.1467901
0.10689025 0.07028792 0.06499119 -0.10812924 0.1817903 0.04395008 0.025728012 -0.17625096
0.083957694 -0.03000412 -0.091624856 0.17178932 0.044589758 -0.110655285 -0.10122778 -0.009551144
0.11167226 -0.051106762 -0.11411498 -0.068488576 -0.14941497 0.071326494 0.15480804 -0.18828808
0.046450138 0.103318356 0.036265876 -0.07122493 0.10438843 0.105102636 0.07478545 -0.03514428
-0.052960254 0.021396184 -0.03533082 -0.05960021 0.12784138 0.17187992 -0.01979947 -0.04477937
0.002918458 -0.011941648 0.04808226 0.056046724 -0.18165135 -0.07380755 0.1684259 0.077911
-0.009947515 -0.12058115 -0.12236102 -0.17915337 -0.06519248 0.06754084 0.12752433 0.09233947
-0.1767888 -0.120272495 -0.03156333 0.19346991 0.028931499 -0.05179415 0.08274305 -0.07617631
-0.12945114 0.14597745 -0.090940356 -0.04009335 -0.19896086 0.13385414 0.15152693 0.07288964
-0.13945484 -0.19738798 -0.1624358 0.14914005 0.09602115 0.1683009 0.104773976 0.050618436
-0.0019585371 -0.1521012 -0.17135444 -0.18706973 0.081872396 -0.0981936 -0.040250517 -0.115101054
-0.036444712 -0.14076698 -0.13068314 0.06634217 -0.05943928 0.12346864 -0.064161755 -0.14671345
-0.035287786 -0.09694948 -0.061188318 -0.19039913 0.111898184 -0.1392409 0.10052355 0.09075685
0.14288655 -0.15341042 0.14383936 -0.09455033 0.07421384 0.18782294 -0.028206373 -0.0015466929
-0.046046115 -0.16699691 0.09598058 -0.19854358 0.124159984 0.14964502 0.18914127 -0.04717591
-0.16432838 0.044966053 0.11048546 -0.19906175 -0.045396734 -0.1198911 -0.017492747 -0.098442696
-0.081753515 -0.06349178 -0.19006081 0.16410151 0.16766624 -0.03137381 -0.022776414 -0.08162399
-0.18061256 -0.19462888 0.07433169 -0.109809235 -0.1285754 -0.015604639 -0.06660223 -0.06470416
0.006426239 -0.042422485 -0.06886249 -0.09576118 -0.16276549 0.16770144 -0.08003743 0.052995898
-0.06939318 0.016252255 0.1864601 0.09214454 -0.17331994 0.079380564 0.18984857 0.052616667
0.13408494 0.19717751 -0.0306458 0.04151089 -0.13900702 -0.04121542 0.14811675 0.10252917
-0.12655781 -0.16037701 -0.13667274 -0.19737554 -0.1543278 -0.049459483 0.13497543 0.03347645
-0.1521211 -0.16044478 0.09949505 -0.14876826 -0.024625493 0.09594121 -0.092562415 -0.021807982
-0.017408896 -0.04731667 -0.10140643 -0.17828767 -0.1616714 -0.107092336 0.19316755 -0.09660294
-0.1343056 0.04847884 0.055122066 0.10958195 0.15202408 0.11137483 -0.1983002 0.017737722

bias f4 [15]
00000000: caa8 cc3d 673f d4bd 6836 0abe 9acc 82bd
00000010: adea 2b3d 57dc d23d a317 9fbd a713 f1bd
00000020: 4002 dd3c 8d6e f1bd 5f56 05be 3a81 d53d
00000030: ed9c 09bd a724 3b3e d339 473e
0.099931315 -0.103636555 -0.13497317 -0.06386681 0.04197185 0.10295933 -0.0776818 -0.117713265
0.026978612 -0.11788664 -0.13021229 0.10425039 -0.03359692 0.182757 0.19455652

weight f4 [5, 15]
00000000: 162a 9e3d d4fc b53d 498b 733d 5d80 843b
00000010: 56d7 99bc 9191 683b ba76 c53d cfd3 753e
00000020: 840a 89bd 4887 dfbd ff0d 80bd cf78 ffbd
00000030: 79d4 333d 935b 453e 5ec0 4e3e 16c8 f23d
00000040: bd93 42be 05e7 0dbe ed5c 68bd 22f0 42bd
00000050: b1f7 ad3c 2ab5 72be 6195 a43d 38b3 49be
00000060: 824b 27be 5ed0 5bbe 865f 663e e55d 7abe
00000070: 8873 473e ea35 0ebc befd f5bc b25f 253e
00000080: eb7f c3bc 1bd1 253e 7a29 3f3e 0d8d 65be
00000090: 6e78 cb3d 3ea6 473d 8564 633d e465 1a3d
000000a0: 0ba4 903d 4b62 febd ee4e 07bd 2535 7b3e
000000b0: 54a2 313e 4ded 1ebc 1bac 78be ed67 393c
000000c0: e40b 34be 1b01 573e e282 20be e5b7 98bc
000000d0: 03b9 6abd 6e33 3c3d bacd 783e 3afb c83c
000000e0: e220 193e c93a 4d3e 1773 553e 6d9e b6bd
000000f0: 1089 6cbd 32d8 fe3d 414a 90bd 2b9d f73d
00000100: 330c 67bd b553 33be b13d d73d 8125 223d
00000110: c0c2 eb3d 3256 833e fa82 343e 60a4 7a3e
00000120: 546b 623c bc6f 63be 137b 39be
0.07722871 0.08886114 0.059459005 0.0040436224 -0.018779438 0.0035487155 0.09641786 0.2400658
-0.06691459 -0.10914475 -0.062526695 -0.12474214 0.0439038 0.19273214 0.2019057 0.118545696
-0.1900167 -0.13857658 -0.056729246 -0.04759229 0.021236273 -0.23701921 0.08036304 -0.19697273
-0.16337398 -0.21466205 0.22497377 -0.2444988 0.19477665 -0.008679846 -0.03002822 0.16149786
-0.023864707 0.16193049 0.18668166 -0.22417088 0.099350795 0.048742525 0.055515785 0.037694827
0.07062539 -0.12421092 -0.033034258 0.24531992 0.1734708 -0.009700132 -0.24284403 0.011316282
-0.17582661 0.20996515 -0.15674928 -0.018642375 -0.057305347 0.045947485 0.24297228 0.024533857
0.1495395 0.20041956 0.20844685 -0.08916936 -0.0577479 0.1244358 -0.07045413 0.12090524
-0.05640812 -0.175124 0.105098136 0.039586548 0.11511755 0.256517 0.17628089 0.24476767
0.013819534 -0.22210592 -0.18113355

bias f4 [5]
00000000: 533c 24be 8dff 68be 1587 04be e564 73be
00000010: 7cef 73be
-0.16038637 -0.22753735 -0.12942155 -0.23768957 -0.23821825

weight f4 [50, 5]
00000000: f7d2 88be cdba e1be f48b 8cbe 7a9e 2e3e
00000010: d3f9 be3e dd38 08be fd34 05be ad85 743e
00000020: 05f0 61be 3988 58be c613 8d3e 3f81 c7be
00000030: 36fb 5f3d 5c45 ca3e 3810 9d3d 5112 f93d
00000040: 205a 85be d12d cabb 8970 c93c aaca e03d
00000050: f1ee 313e 19f6 c63e 76c6 aebe 27a2 5b3c
00000060: 8ace 64be ef21 b5be 68af 12bd 018d c9be
00000070: e2cc 9f3e e625 543d 68d0 76be 3950 6f3e
00000080: f0b4 d8be 2922 31be e66e b2bd f791 c2be
00000090: fb99 91be a97d 95bd a4bc ad3e ee1b dd3e
000000a0: e9af 913e b9b9 88be 9acc 95be d0d2 c73e
000000b0: d7fb 213e 5aaa 423c 4be6 773d 7006 b8be
000000c0: d8e6 18be f569 dc3e 8ae3 e1bd a7c7 b7bc
000000d0: ab1f bebe de16 80be 0e9e 15bc 9d3a 8ebe
000000e0: c028 63bd 995d 3a3e fff9 dfbe 0604 083e
000000f0: 2866 97be 5a80 5fbe 68cf 2f3e b50f b63e
00000100: 5352 fabd cd04 3cbe c10b cfbe cc24 6cbe
00000110: 5e7f c8be fa9e d1bd 9de4 ba3d 0385 d6be
00000120: 74eb c73e e2a7 8f3e 0b27 e0be 00bb 5abe
00000130: 985c 153e d92d bcbd 279f 47bd 27c5 4ebe
00000140: 77ea b73e cdfd 7fbe dee1 bd3e d061 ec3c
00000150: 521d b83d 20a1 b23e 61e8 96bd 4d5d 82be
00000160: 9e21 94bd aab5 b93e 35e5 a9be d1e3 cf3d
00000170: 7608 e1be 391a 703e 5032 293e a14e 9b3c
00000180: 2f8c 443e afdb 033a f767 7d3e 9042 b5be
00000190: 5180 86bd e026 4b3e f903 e43e 2d46 693e
000001a0: ea80 a6be 4a1a b03e 1e3e ccbd 758e c3bd
000001b0: b91d d0be bc2c 90bd 80f5 a13e e66e 7f3d
000001c0: cf5d 85be 27f6 0c3e 8ad6 12be 230d d13e
000001d0: 0dbd c6be 77a7 10be 3317 ddbe 6e5a 34be
000001e0: db5d 103e c269 dc3e 2ad2 993d d979 e03e
000001f0: 4e32 b33d 883d 843e 2d8f b73e 7867 bf3e
00000200: 6d29 80be 0c84 d23e 43b4 8a3e 5320 56be
00000210: a288 5abe f00c c0be d503 e63d 1d98 b9be
00000220: b072 413e 579e 103e bcee c6be ee94 f93d
00000230: effa 14bd bc32 513e ee61 833e faa1 e3be
00000240: c0fd d13e d406 c03e a335 363e d245 d1be
00000250: 8c96 23be 8fb7 04be fa61 ebbd 951f 813e
00000260: f77e 263e 4e63 b53e fc82 2bbe 051e 1a3e
00000270: 6aef 223e 20a4 bebe d31b debe a19f 6dbe
00000280: 41be 9c3e b691 d7be 604e c7be 6145 803e
00000290: 5513 773e 574e bc3e 61dc acbe e695 a7be
000002a0: aaeb 6a3e 451f c73e ef00 893e 047a 8f3d
000002b0: 7bed 163e 2253 d93e 0fbc 93be c8e9 4fbe
000002c0: c828 a03e 32ac 9cbe 8084 7cbe 0526 a73e
000002d0: 077e 103e e9f2 133e a818 42be 933c cabb
000002e0: 5d90 d13e 356f 89be 286e 663b 9bcc 593e
000002f0: bd12 9ebe a65f de3e 86cb 64be 63f0 dbbd
00000300: 44d0 f7bd 6836 95be f6ae e0be 641b 813e
00000310: 4554 f33d e674 d6be 975f 93be 594f e23e
00000320: 150b 2f3e a9bf 373e 8cfe 88be 16c3 48be
00000330: 0542 8abd 9f7f a7bd 54e7 9cbe 62e9 163d
00000340: c10e 363d 55f1 67bd a7f1 7d3d e981 35be
00000350: ed5c ee3d d0b5 2c3e e937 71be 910b e3be
00000360: 7fb4 6f3e 6679 da3d fce7 68be 7ea9 dc3e
00000370: 001b 4fbe 5fba 9a3e 5554 683e 1ef9 bfbe
00000380: a4ac 933e e988 d2be 8eb5 7dbe 6eb1 98bd
00000390: b556 9abe b4af df3e a7b5 b7bd 49e4 353e
000003a0: fa73 ccbe f1cf 833e 8852 0ebe 672c aebe
000003b0: b5ec 853d 91db 5d3e 2327 c63e f1da 8bbe
000003c0: 885b 61be a217 b03d 4572 f83d 5c11 303e
000003d0: 095b 7b3e a7ae cfbd da6b 7e3e f4d1 a83e
000003e0: 4740 efbd 9ee7 a23e
-0.26723453 -0.4408783 -0.27450526 0.17052642 0.37299976 -0.13302942 -0.13008495 0.23879118
-0.22064216 -0.21145715 0.27554148 -0.38965794 0.054682933 0.39506042 0.07669109 0.12161697
-0.26045322 -0.0061700125 0.024589794 0.10976155 0.17376305 0.38859633 -0.3413579 0.013405359
-0.22344413 -0.35377452 -0.03581181 -0.3936539 0.31211 0.051793955 -0.24102938 0.23370446
-0.42325544 -0.17298187 -0.087125584 -0.38001987 -0.2843779 -0.072993584 0.33932984 0.4318537
0.2845452 -0.26704195 -0.2925766 0.39028025 0.15818726 0.011881435 0.06052236 -0.3594241
-0.1493181 0.4304959 -0.11029728 -0.022434069 -0.37133536 -0.25017446 -0.009131921 -0.27779093
-0.055458784 0.18199767 -0.4374542 0.13282785 -0.29570127 -0.21826306 0.17168963 0.3555886
-0.12222733 -0.18361206 -0.40438655 -0.23060912 -0.39159673 -0.102354005 0.09125636 -0.41898355
0.39046824 0.28057772 -0.43779787 -0.21360397 0.14586103 -0.09188432 -0.048735764 -0.20192395
0.3592107 -0.24999161 0.37086385 0.028855234 0.089899674 0.34888554 -0.073685415 -0.25461808
-0.072329745 0.3627141 -0.33182684 0.101508744 -0.43951768 0.23447503 0.16523099 0.018958392
0.19194101 0.0005029989 0.2474669 -0.35402346 -0.06567443 0.19839048 0.4453428 0.22780676
-0.3252023 0.34395057 -0.099727854 -0.09548656 -0.40647677 -0.070397824 0.31632614 0.06236162
-0.26048133 0.13765775 -0.14339653 0.40830335 -0.3881611 -0.14126383 -0.43181762 -0.17612621
0.14098303 0.43049437 0.07510789 0.43842962 0.08749829 0.25828195 0.35851422 0.37383628
-0.25031605 0.4111637 0.27090654 -0.20910768 -0.21341184 -0.3750987 0.112312 -0.36248866
0.18891406 0.14122902 -0.38854015 0.12186609 -0.03637212 0.2042951 0.25660652 -0.44459516
0.41013908 0.3750521 0.17793898 -0.4087358 -0.15975398 -0.12960647 -0.11493297 0.25219408
0.1625937 0.35427326 -0.16749185 0.15050514 0.15911642 -0.37234592 -0.43380603 -0.23205425
0.30613902 -0.42103356 -0.38926983 0.25052932 0.24128468 0.3677852 -0.33761886 -0.3273155
0.22941461 0.38891044 0.26758525 0.070056945 0.14739029 0.42446238 -0.28854415 -0.20304024
0.31281114 -0.30600125 -0.2465992 0.32646194 0.14110576 0.14448132 -0.18954718 -0.006171772
0.40930453 -0.26842657 0.0035160873 0.21269457 -0.3087367 0.4343235 -0.22343263 -0.107392095
-0.121002704 -0.2914307 -0.43883485 0.2521621 0.118813075 -0.4188606 -0.28783867 0.44201162
0.17094071 0.17944206 -0.26756704 -0.1960567 -0.067508735 -0.08178639 -0.3064524 0.036843665
0.044447664 -0.056626637 0.061998036 -0.17725338 0.11638818 0.16866231 -0.23556484 -0.44344762
0.23408698 0.10667686 -0.22744745 0.43098062 -0.20225143 0.30220315 0.2268842 -0.3749475
0.28842652 -0.4112008 -0.24776289 -0.07455717 -0.30144277 0.43688738 -0.08970194 0.17762865
-0.39932233 0.25744584 -0.1389867 -0.3401825 0.06539289 0.21665789 0.38701734 -0.27315477
-0.22007573 0.085982576 0.1213117 0.17194122 0.24546446 -0.10140734 0.2484583 0.32972682
-0.11682182 0.31817335

bias f4 [50]
00000000: 4ebe 5f3e 72f7 c93e 9d1e 82be 6123 62be
00000010: 0469 04be ebd6 b93c f96d 893e 5cb6 82be
00000020: d945 653e 9d1e 24be 2f53 8a3e b7ef adbc
00000030: bf99 c8be b9fb 7bbe 4db8 a5be d91f 633e
00000040: a589 99be 0a9f 18bd fe9b c53d b322 7bbe
00000050: 991a 043e 2f93 dfbe 17d5 a3be 667a cfbe
00000060: bd84 0abe 2cd4 26be 5d26 833d a95c a9bd
00000070: c445 573e f6eb d13e a54e 243e 876a 34be
00000080: 4968 d6be 83de 253e b0e4 62be ca09 693e
00000090: b310 993e b2a3 303e 21d9 d63e 637a d93e
000000a0: 62ee c13d a1d6 a6be 0393 cc3e 354b 59be
000000b0: 1250 58be 9b99 bf3e 3269 b13e 845e 0a3e
000000c0: 95a5 e53c c69a c0be
0.21849939 0.39446598 -0.2541398 -0.22083808 -0.12930685 0.022685489 0.26841715 -0.25529754
0.22389926 -0.16027303 0.2701659 -0.021232469 -0.391798 -0.24607743 -0.32367173 0.22180118
-0.29987827 -0.037261046 0.09648894 -0.24524955 0.12900771 -0.4366698 -0.31998512 -0.4052307
-0.13527198 -0.16291875 0.064038016 -0.08269627 0.21022707 0.41000336 0.16045626 -0.17618762
-0.41876438 0.16198163 -0.2215755 0.2275764 0.29895553 0.17249945 0.4196253 0.42476186
0.09469296 -0.32585624 0.3995591 -0.21220095 -0.21124294 0.3742188 0.3465057 0.13512617
0.028033057 -0.37618083

weight f4 [30, 50]
00000000: e284 70bc 76e5 0a3e 9f83 133d 8b61 463c
00000010: 9391 f0bc 4b09 4abd 6ba0 ac3d 8ee3 0e3c
00000020: 2a6d bc3d 9f0e cdbc b915 7d3d 151a 6f3d
00000030: 34be b83c 0cff b53d fd7e b53d 9b3b 063e
00000040: 4ba9 de3d 861d 14bd 1935 f5bd 63cc d33c
00000050: 5bca a1ba 1216 17bd 1200 c2bc 62f4 d93b
00000060: ca52 d33d 6f94 343d 4fb1 4dbd fb34 6ebd
00000070: 8271 0fbd efe2 5fbd ad38 023e d466 993d
00000080: cdc3 023e daca ec39 f9a3 e93c 19de 483d
00000090: 5713 09be 88e7 4e3c c1fc 1abc fd61 a2bd
000000a0: 05bd e0bd 9133 003e 347d eb3d 213c 863d
000000b0: ac30 0a3e ac11 6bbd 761a c8bc c051 5b3d
000000c0: 3f6b bfbc bc57 e3bc d565 efbd 0fa0 1b3d
000000d0: 2808 afbd 4986 a83b 0a31 0d3e 414e 32bd
000000e0: 1d94 36bd f2bc ae3d aff7 54bd 69fb 46bc
000000f0: 4438 073e 6f7b 6dbd 7734 cfbd 1417 a2bd
00000100: 0c99 20bd f56d 89bd 774c 96bd 5afd 693d
00000110: 7de0 c43c 4466 39bd 8004 e1bd e662 36bd
00000120: a178 74bd b780 3cbd 31a4 02be 6794 f93c
00000130: 77cc d4bd 7990 e1bd 5aa3 ecbd 43c6 713d
00000140: 965d aebd 4117 6fbd 4706 e33d 9fc8 993d
00000150: 6412 a63d d480 09be bdb1 cfbd 81ad 5abd
00000160: 7143 ef3d f008 6d3c 3a9d d8bd a724 683a
00000170: aaf2 e0bd edd4 fdbc 5748 1fbd efb8 fa3d
00000180: 2f6b 333d 5a03 cabc 3db5 c33c 8436 27bd
00000190: 9b97 633d 9322 653d fc8e 1b3d 6ec8 61bd
000001a0: 4f19 f73d 8c41 a7bc 2e84 61bd 6266 b53d
000001b0: ce10 ec3d 521d 103e 759c 2b3d 8277 45bd
000001c0: eb19 933d 7c7d f83d 3b0a 0ebe a686 8fbc
000001d0: b084 c5bd f8e6 d73c ed92 6f3d 4656 efbc
000001e0: 6cd6 41bc b35d 823d 78b6 c2bc e439 f3bd
000001f0: 80be e73d 84c6 91bd 238c 7ebc 078f 5a3c
00000200: 4e3f 0bbc d439 08be f7e1 843d 3b8f 83bd
00000210: 4938 96bd 0565 0a3d bc25 97bd 11db 85bd
00000220: a92e 43bd 9f9d 59bd e6eb 71bd 0038 1cbd
00000230: 4089 163d e35f eabd d34e afbd 843c 073b
00000240: 1e1d a13c 04f6 9f3d 1373 cbbd 0ce6 383d
00000250: 8f9f a43d 0fd2 a03d 5ee2 06be 7c0c 5dbd
00000260: f1f4 f8bd 2248 b7bd c951 a13d 5bfd acbc
00000270: e404 763d e403 aabd 960c b03c 822f afbd
00000280: c1c8 903d 645b 7dbd 5541 11bd fa4a fbbd
00000290: 1af1 f439 da7f 093e 9e94 8c3d ad87 9abd
000002a0: 5f4a f93a 8b0f 7ebc a62c e9bd d918 e33d
000002b0: d268 153b 50fb f33c 39ec 69bd 1c86 87bd
000002c0: 4c07 bf3c d228 563d 63ed 013d 1196 8bbd
000002d0: dd99 0c3e 308a aabc d65f b1bd cc76 87bd
000002e0: 328f 0e3e 7489 e436 4e43 9dbc 1111 71bd
000002f0: d1d9 17bd 7aef f3bd 392a e6bd 9884 a93d
00000300: bfc3 f73d 8d32 0a3e ca18 d1bd 97a6 9c3d
00000310: 9a45 b3bd 45c8 ac3d 05fc d03d 1123 e03d
00000320: 948c d03d 752f b53d 9564 343b 9114 853d
00000330: 393e 4fbd 163b 7c3d 082d 3abd 18a0 1bbb
00000340: b216 fcbd 5876 17bd 204f 98bd a865 43bd
00000350: 55f4 b8bd e240 02be cae0 163c e7f6 bb3d
00000360: ffe3 033e ee03 a93d 6520 96bd 5339 0fbe
00000370: d8b8 5b3d c548 a23d d3a6 f8bd 1bb7 4f3d
00000380: 5ae0 f43d d85b 0c3c a07d aebd 2976 ed3d
00000390: a35a 773d 41cb bf3d 8bdf c3bd a88c a83d
000003a0: dad6 c5bd 4a4b 0f3e e16e 75bd a785 ae3d
000003b0: 10fc e73c ae82 193d 59aa b1bc 61ec 6d3d
000003c0: 8a6b 71bd 0480 08be e08d 5ebd e1ef e23d
000003d0: 8980 18bd 9b12 363d 1e2b 56bd 3544 d93d
000003e0: 5f57 ad3d c37c 4c3d 5a0c 94bd 85aa ecbd
000003f0: 8b78 ae3b 0cea a9bd fc21 ee3d 072a 0bbe
-0.014680119 0.13564095 0.036014196 0.012108217 -0.02936629 -0.04932527 0.08429035 0.008721245
0.09200509 -0.025031386 0.061788294 0.058374483 0.022551633 0.08886537 0.08862112 0.13108675
0.10872134 -0.03616097 -0.11973018 0.025854295 -0.0012343632 -0.036886282 -0.023681674 0.006651447
0.10318525 0.04408687 -0.050217923 -0.058155995 -0.03502036 -0.05465978 0.12716933 0.07490316
0.12770005 0.00045164564 0.028520571 0.049039934 -0.13386284 0.012628444 -0.009459675 -0.07928846
-0.109735526 0.12519671 0.1149849 0.065544374 0.1349513 -0.0573899 -0.02442668 0.05354476
-0.023366569 -0.027751796 -0.11689345 0.03799444 -0.085464776 0.005142961 0.13788238 -0.04353166
-0.044574846 0.08532132 -0.051994022 -0.012144902 0.13205057 -0.057979044 -0.10117429 -0.07914558
-0.039208457 -0.06710426 -0.07338803 0.05712638 0.024032826 -0.045263544 -0.109871864 -0.04452791
-0.059685353 -0.04602119 -0.12757947 0.030466272 -0.10390561 -0.11013884 -0.11554594 0.059026968
-0.08513944 -0.058371786 0.11085182 0.075089686 0.081089765 -0.1342805 -0.10141323 -0.053388122
0.11682785 0.014467463 -0.105768636 0.0008855559 -0.109837845 -0.03098532 -0.038887348 0.122423045
0.04380339 -0.024659801 0.023890132 -0.040823475 0.055564504 0.055941176 0.037978157 -0.055122785
0.12065374 -0.020416997 -0.055057697 0.088574186 0.11526643 0.14073685 0.041897256 -0.048209675
0.07182678 0.12133309 -0.1387109 -0.01752026 -0.09644449 0.026355252 0.05848973 -0.029215943
-0.011830907 0.06365528 -0.023768649 -0.11876276 0.11315632 -0.07117942 -0.015536341 0.013339764
-0.00849898 -0.1330331 0.06488412 -0.064238034 -0.07334954 0.033787746 -0.07380244 -0.06535924
-0.04765192 -0.053128835 -0.05906286 -0.038139343 0.036751986 -0.1144407 -0.085599564 0.0020635435
0.019667204 0.07810596 -0.09934058 0.045141265 0.08038246 0.078525655 -0.1317229 -0.053966984
-0.12156094 -0.08949305 0.078769274 -0.021116903 0.060063258 -0.08301523 0.021490376 -0.08553983
0.07069541 -0.061854735 -0.035462696 -0.1227016 0.0004671894 0.13427678 0.06864284 -0.07545409
0.0019019357 -0.015506635 -0.11385469 0.11088724 0.0022798073 0.029782921 -0.057110045 -0.06617376
0.02331891 0.052285023 0.03172053 -0.06815732 0.13730569 -0.020817846 -0.086608574 -0.066144556
0.13921812 6.810931e-06 -0.019197132 -0.058854166 -0.03707296 -0.11910911 -0.11238522 0.082772434
0.120978825 0.13495846 -0.10209806 0.07648962 -0.0875351 0.08436636 0.10204319 0.109441884
0.10183063 0.08846942 0.0027525772 0.06498063 -0.05059645 0.061579786 -0.0454531 -0.0023746546
-0.12309016 -0.036978096 -0.07436967 -0.04770437 -0.09030978 -0.12720063 0.009208867 0.09177952
0.12879942 0.08252703 -0.073303975 -0.13986711 0.053643078 0.07924036 -0.12141194 0.050711732
0.11956854 0.008566819 -0.08520055 0.11594803 0.060389172 0.093649395 -0.09564122 0.08229953
-0.0966012 0.13993564 -0.059920195 0.08521586 0.028318435 0.03747814 -0.021687673 0.058086757
-0.058940448 -0.13330084 -0.05433452 0.110809095 -0.037231956 0.044451337 -0.052287214 0.106087126
0.0846393 0.04992367 -0.072289184 -0.115559615 0.0053244284 -0.08296594 0.11627576 -0.13590251

bias f4 [30]
00000000: 325e f93d a91e b1bb 7b6e e8bd faec 3abd
00000010: 14e9 1abd 8917 193b 114c 03be 3ab4 d63c
00000020: 02e9 70bd 9d50 14bd 9797 95bd 8d9a f4bc
00000030: 687e 06be 948d 99bd 3775 553c c7c9 bd3d
00000040: ca99 033e cb17 dbbd 8c3e 733d 8543 a3bd
00000050: 21ee dfbd 5810 ccbb 5525 a6bd 9071 f9bd
00000060: d955 07be 2fdd c1bd 0700 ee3d 8e87 a13d
00000070: 944c 65bd 22db c1bd
0.121761695 -0.0054052663 -0.113491975 -0.045636155 -0.037819937 0.0023359975 -0.12821986 0.026208986
-0.058815964 -0.03620969 -0.07304304 -0.029858852 -0.13134158 -0.07497707 0.0130284345 0.092670016
0.12851635 -0.106978975 0.05938582 -0.07971863 -0.10934091 -0.0062275343 -0.08112589 -0.121798635
-0.13216342 -0.094660155 0.11621099 0.07887183 -0.055981234 -0.094656244

weight f4 [3, 30]
00000000: 79d0 0fbe 92cd dcbd 37dd 99bd 4791 e03d
00000010: edba 743d 6218 90bd d3b4 003e 5949 e8bd
00000020: 8f4f 18be 7236 233d e52c cebd 60bd 543d
00000030: 5265 1e3e 31d3 b0bd ca75 02be 91bd 8c3d
00000040: 47d9 28be 46cc 263e 0c95 b0bd 7ac5 b43d
00000050: 7fa9 14be cf16 fdbd a5c0 a43c dee3 843d
00000060: faf6 103e a55b 1c3e ba08 2cbc 904a c0bc
00000070: b73b f73c 76b6 2dbd f9a6 cb3b 6c0e 31be
00000080: 3a79 19be 291d 003e 787f dabd a139 133e
00000090: 5023 a43c 9828 363d 8beb 293e 57f7 cfbd
000000a0: 8c19 ecbc d57d 043d e57c 7f3d bef2 35be
000000b0: 2ee5 843d 6d81 dcbd 1174 c43c 51f8 fc3d
000000c0: 41fd 94bc 1342 bdbb ea7e 5fbc f102 1c3e
000000d0: 5281 d43d a085 fb3c a106 e1bd 490c cbbd
000000e0: b1eb 143e ff7f 063e ae7f d83d d6c5 11be
000000f0: 9699 113e c9f8 8ebc babd 093e 6961 223e
00000100: 83f0 a33c 7597 9bbd 3bdc 2f3e 5fda c2bd
00000110: cf51 f43d 2d45 33be 4133 6bbd 99ff 22be
00000120: 5eba a7bd 28c5 9e3d 8ef5 05be 26ae 21be
00000130: 1cae 053e 139a c73d 6dd7 02bb f0cb 03be
00000140: 3420 46bd 7d21 72bd a7ec e63d 679a 74bd
00000150: 8b62 57bd 8486 04be a01b b0bd 4274 ca3d
00000160: f3e7 f03d 704c d93c
-0.1404437 -0.10781397 -0.075128965 0.109652095 0.05974858 -0.07035901 0.12568979 -0.11342115
-0.14874099 0.039846845 -0.10067157 0.051938415 0.15468338 -0.086340316 -0.12740245 0.068720944
-0.16489135 0.16288862 -0.086221784 0.08826728 -0.14517783 -0.12357866 0.020111391 0.06488775
0.14156714 0.15269335 -0.010500127 -0.023473054 0.030179841 -0.042410336 0.006214973 -0.17290658
-0.1498765 0.12511124 -0.10668844 0.14377452 0.02003637 0.044472307 0.16593759 -0.10154598
-0.028820775 0.032346565 0.062374968 -0.1776838 0.06489025 -0.107668735 0.023981126 0.1235205
-0.018187167 -0.005775699 -0.0136410985 0.15235497 0.103762284 0.030703366 -0.109875925 -0.099144526
0.14543034 0.13134764 0.10571228 -0.14235625 0.14218745 -0.017452614 0.13451281 0.15857472
0.020012146 -0.075972475 0.17173855 -0.09514307 0.11929666 -0.17506857 -0.057421926 -0.15917815
-0.081898436 0.07752448 -0.13081953 -0.15789089 0.13054699 0.09746184 -0.001996483 -0.12870765
-0.048370555 -0.05911397 0.112756066 -0.059717562 -0.052584212 -0.12941939 -0.08599019 0.09885456
0.11762991 0.026525706

bias f4 [3]
00000000: 834a 8cbd c891 333e fe9a 133d
-0.068501495 0.1753608 0.036036484
