control_allocation/src/original_model.pt (torch, 16338 bytes, 12 tensors)

weight f4 [25, 3]
000000 05 2f ce 3e 56 c6 e7 3e 49 23 41 be cd 46 12 3f
       0.40270248 0.45268506 -0.18861116 0.57139283
000010 d1 55 7d be 2a 99 b3 3d 57 5b 90 be 66 ce dc 3e
       -0.24739768 0.08769448 -0.28194687 0.4312622
000020 4b 2e e4 3e 16 e9 0e bf e7 3d d9 3e 4d e9 38 3d
       0.4456657 -0.5582441 0.4243004 0.045144368
000030 28 62 10 3f 97 29 9a 3d 9c 9a 12 3e 86 66 a7 bc
       0.56399775 0.07527464 0.14316791 -0.02043463
000040 d5 13 bc 3e 04 ef ab 3c 2b d0 a4 be 84 92 ef 3b
       0.3673388 0.020987995 -0.3219007 0.007311167
000050 78 73 97 be df 71 d5 bc c4 a8 bd be 83 4d ca 3e
       -0.29580283 -0.026055275 -0.3704282 0.39512262
000060 d2 8a f1 be 92 3d 0b bf 09 4a 61 be d7 18 c2 be
       -0.47176224 -0.54390824 -0.22000898 -0.37909576
000070 6b 98 a4 3b bc d4 0e bf 3b 87 f6 3e c2 56 0b bf
       0.0050230525 -0.55793357 0.48150048 -0.54429257
000080 e9 ee 02 3f b8 67 9c 3d 7b 23 1e be 26 c1 ea 3e
       0.511458 0.0763697 -0.15443222 0.45850486
000090 5a 6d 0e 3d c6 b5 01 3f bf 0d a3 3d 56 6f 81 be
       0.034772255 0.5066799 0.07961606 -0.25280255
0000a0 e4 b6 3c 3e b8 bb 30 be 7a 6b 9d 3e df b4 29 3f
       0.18429142 -0.17259109 0.3074606 0.6629161
0000b0 f4 ad 4f 3e 2f 23 4b be 02 a0 ca 3e 0e 32 9b 3c
       0.20281202 -0.1983764 0.395752 0.018944766
0000c0 99 d8 aa 3e 0c 96 d2 be 9f 2d 00 bf b7 f5 9c be
       0.33368376 -0.41130102 -0.5006961 -0.30656216
0000d0 9c 3b db be cc db 05 3f e0 99 34 3e d3 72 98 3e
       -0.42818916 0.5228851 0.17636824 0.29775104
0000e0 9d 49 e0 3d 68 9a 04 3d 13 b4 05 3f 0f 2c e2 be
       0.109515406 0.032373816 0.52227896 -0.4417424
0000f0 8b c3 92 3d be 58 c4 be 5b 1f 7c 3e 07 b6 46 be
       0.07166203 -0.38348955 0.24621336 -0.19405375
000100 a4 12 af 3e c7 7d 85 be 9c 28 c8 3e 4b 26 b1 be
       0.3419391 -0.26072523 0.39093482 -0.34599528
000110 d1 72 9d be 8a d4 bc be 40 f5 ee 3e 4a 5a 08 3e
       -0.3075166 -0.36880904 0.46671486 0.13315693
000120 32 70 e1 3e a8 ee 30 bf fe d0 07 bf
       0.4403091 -0.6911416 -0.5305327

bias f4 [25]
000000 84 29 f2 be 57 4b 9a be a9 87 cb 3d 2c e9 69 3e
       -0.472973 -0.30135605 0.099379845 0.22842854
000010 a2 0e b7 3e 2f 30 b5 be 8a be c5 be 09 7d c4 3e
       0.3575335 -0.35388324 -0.38621932 0.38376644
000020 7f 95 5a be 51 8f a6 3e 4c a8 de bd e7 c2 62 3e
       -0.2134609 0.32531217 -0.10871944 0.22144662
000030 d4 e0 d7 be 70 a7 6f be a6 90 f8 3d 07 81 79 3d
       -0.42163718 -0.23403716 0.121369645 0.060914066
000040 e1 af c4 bd d7 c0 f4 3e db 2f 88 3e 6c 67 b2 be
       -0.09603859 0.47803375 0.2659901 -0.3484453
000050 58 df 92 be 73 c4 f8 3e 20 8a 99 be f0 8f 4f be
       -0.28686023 0.4858738 -0.29988194 -0.20269752
000060 19 ab f0 be
       -0.47005537

weight f4 [15, 25]
000000 1e 27 0d be f6 98 bd 3d e2 be 91 bc b1 d0 12 be
       -0.13784453 0.092576906 -0.017791215 -0.14337422
000010 fb 6c 17 bd e5 d6 0c be 9a be 2d be de 2a 83 3c
       -0.036969166 -0.13753851 -0.1696724 0.016011652
000020 b9 b9 cb bd 78 bc 2a be 5f 76 bd 3e 86 90 01 3e
       -0.09947533 -0.16673458 0.37004372 0.12652788
000030 5a 83 4c 3d 85 03 3f be 2e f6 2a be aa f0 89 bd
       0.049929954 -0.18653686 -0.16695473 -0.06735356
000040 d5 67 6a 3d cc 3f 55 3b 4c 72 f9 bd c0 0e f9 bd
       0.05722793 0.0032539247 -0.121800035 -0.121610165
000050 1f 63 b1 3d 75 bd 01 be 6e a9 ef 3c f9 fc 0a be
       0.08661484 -0.12669928 0.029255595 -0.13573064
000060 8d 8d 49 bd ff c0 08 be 4f 84 8c bd 8b 53 ff bd
       -0.04920726 -0.13354872 -0.06861173 -0.124671064
000070 00 2a 31 3e 83 11 df bc 80 77 fe 3d 9d 1f ee 3d
       0.17301178 -0.02723003 0.124251366 0.116271235
000080 9d 99 0c be 08 90 96 3e d1 05 2e 3d e8 90 0a be
       -0.13730474 0.29406762 0.042486016 -0.1353184
000090 bb 96 29 be e3 0a 6a be e4 3f 96 3c 79 a0 d3 bd
       -0.16561405 -0.22855715 0.018341012 -0.10333342
0000a0 b0 a2 93 3c 96 2c 56 be c8 a9 74 3e 16 f3 21 be
       0.018021911 -0.20915446 0.23892891 -0.15815386
0000b0 d4 d3 ef bd 5a 7b 06 bd 9f 4f 33 3e 3b 8e f3 3d
       -0.11710325 -0.03283248 0.17510842 0.11892363
0000c0 65 c7 8d 3d d9 fb 54 be 2e 7f 96 bd 61 d4 d0 bd
       0.06922797 -0.20799197 -0.07348476 -0.10196758
0000d0 f7 37 3c 3e db 48 2f be ff 1a 6b 3e aa 01 2a be
       0.18380724 -0.17117636 0.22959517 -0.16602197
0000e0 dc 4c da 3d 65 a9 b1 3d ea 69 26 3d a9 fe 26 be
       0.10659191 0.086748876 0.04062835 -0.16308083
0000f0 9a 53 45 3e 22 2f f3 3d 1a 26 ae bc 0a cf 34 be
       0.19270173 0.11874224 -0.021258403 -0.17657104
000100 05 2a 79 3e e7 9a 37 bd 88 c4 21 be 46 c2 b6 3d
       0.24332435 -0.04482546 -0.15797627 0.089237735
000110 3d ec df 3d 17 dd 35 be 94 aa 31 be a5 c6 f3 bd
       0.10933731 -0.1776012 -0.17350227 -0.11903123
000120 8f 0f 82 3d bc 44 9d bd f5 fc 16 be bf c5 dd bd
       0.06350624 -0.07679126 -0.14744933 -0.10828733
000130 d4 f6 30 be 0a bb 52 3e 52 79 43 3e 1c 96 a4 be
       -0.17281657 0.20579162 0.19089249 -0.32145774
000140 15 01 4d 3c 76 03 5b 3d 87 91 f0 3d b6 1f e8 bd
       0.012512465 0.053470097 0.11746507 -0.113341734
000150 72 e1 2c be 7b af e0 bd 44 69 ef 3d ee 65 a1 bd
       -0.16882876 -0.1097097 0.1169 -0.0788077
000160 0c 90 e5 bd d8 c1 ce bc 50 10 9b bc 45 4a 06 be
       -0.112091154 -0.025238916 -0.018928677 -0.13114269
000170 39 2e 86 3e 37 01 ee 3d b1 29 b5 bd 27 1d ad bd
       0.2620714 0.116213255 -0.08845843 -0.08452826
000180 1a c4 0c bd 34 04 43 bd 65 cd 50 3d d4 03 64 3c
       -0.034366705 -0.04761143 0.05097713 0.013916928
000190 d1 72 3a bd 6d 5a d5 bd c2 a5 99 3e 21 f4 09 3e
       -0.045519654 -0.10417638 0.30009276 0.13472034
0001a0 a8 8c 3c 3d da 93 79 3c 31 b6 0f be da 0a cd be
       0.046032578 0.0152330045 -0.14034344 -0.40047342
0001b0 f2 7b 05 be 4c 3a a9 bd 8b af ae 3b c1 49 71 bd
       -0.13035563 -0.08263072 0.005330985 -0.058908228
0001c0 7b 21 92 3c ff 3d f2 bd 6c 08 b7 3e d4 82 a5 3e
       0.01783823 -0.11828231 0.35748613 0.32326376
0001d0 b9 d4 ec 3a 2b 5d d6 be 54 64 5a 3e bd e2 81 bb
       0.0018068767 -0.41867957 0.21327335 -0.003963797
0001e0 3b 4d 0b be 8c 1c f5 3d 34 47 ec bd 45 20 b3 3d
       -0.1360368 0.119683355 -0.115370184 0.08746389
0001f0 ce e8 4f be 62 45 8b 3d 92 11 d5 3d 52 d6 8b bd
       -0.20303652 0.06800343 0.10403742 -0.06827988
000200 56 de d3 be ad 49 a6 be 92 6d 25 be 7c 6b 14 3e
       -0.41380566 -0.32478085 -0.16155079 0.14494127
000210 1e b7 8e 3e 33 e7 fe 3e b1 2f 08 3e 22 8e f5 3d
       0.27874082 0.49785766 0.13299443 0.1199
000220 be 8d 6b bc 95 9f 1b be c5 bd 4e be 25 cb 6a be
       -0.014377056 -0.15197594 -0.20189579 -0.22929056
000230 bd 40 31 bd a1 f8 b7 3d ce c6 61 3e d7 12 5a be
       -0.04327463 0.08982969 0.22048494 -0.2129625
000240 ea f9 af bd 71 ac 61 bd b6 5b bc be b3 73 c1 3d
       -0.08592589 -0.055096094 -0.3678872 0.09445896
000250 e3 b7 00 be 71 ac a6 3e 02 b7 87 bd 4a ac 25 be
       -0.12570147 0.32553437 -0.06626703 -0.16179004
000260 a1 6b 10 bd 0e 6a c6 bd 78 fe ad bd a7 f7 42 be
       -0.035258893 -0.09688197 -0.08495802 -0.19039784
000270 59 27 e5 3d 9e 71 15 be 8c 52 bd 3d 68 fb 5b 3d
       0.111891456 -0.14594123 0.0924426 0.053706557
000280 f5 7c f3 3d 6a 0b 27 be 6e 4a 13 3e 7e 8f c1 bd
       0.11889068 -0.16312948 0.14383861 -0.09451197
000290 f6 3c 97 3d e1 5e 40 3e 3f bc ce bd 02 ab 46 bc
       0.07384674 0.18786193 -0.10094499 -0.012125732
0002a0 45 86 4b bd d6 98 2b be bc 31 ba 3d 68 b0 56 be
       -0.049688596 -0.16757521 0.09091517 -0.20965731
0002b0 ab ca 87 3d 25 45 19 3e 3f 13 ee 3d 87 3b 41 bd
       0.06630453 0.14967783 0.11624765 -0.04717591
0002c0 b3 45 28 be 53 2e 38 3d 33 46 e2 3d d8 d6 4b be
       -0.16432838 0.044966053 0.11048546 -0.19906175
0002d0 ed f1 39 bd 77 89 f5 bd f3 4c 8f bc 53 9c c9 bd
       -0.045396734 -0.1198911 -0.017492747 -0.098442696
0002e0 63 6e a7 bd fa 07 82 bd 4d 9f 42 be 3a 0a 28 3e
       -0.081753515 -0.06349178 -0.19006081 0.16410151
0002f0 b3 b0 2b 3e d3 81 00 bd 9a 95 ba bc 7a 2a a7 bd
       0.16766624 -0.03137381 -0.022776414 -0.08162399
000300 80 f2 38 be cb 4c 47 be 37 3b 98 3d aa e3 e0 bd
       -0.18061256 -0.19462888 0.07433169 -0.109809235
000310 45 a9 03 be 9a aa 7f bc c0 66 88 bd 9d 83 84 bd
       -0.1285754 -0.015604639 -0.06660223 -0.06470416
000320 0c 11 dd 3b 44 44 70 bd 8c 9b ec bd b2 7c 02 be
       0.006746417 -0.058658853 -0.11553106 -0.1274288
000330 39 27 6c be ad bf 24 3e 8b a2 a3 bd 5b e6 77 bc
       -0.23061837 0.16088744 -0.07989987 -0.015130605
000340 37 29 a7 bd 23 e8 ae 3b 87 3d f1 3d 13 0a ac 3c
       -0.08162158 0.0053377314 0.117793135 0.021000898
000350 72 a7 34 be 56 e8 a1 3d eb 0e 1d 3e 4d b8 01 3d
       -0.17642 0.07905643 0.15337722 0.031669904
000360 31 a6 e8 3d c1 41 dc 3d 54 9a 8e bd 36 e6 3a 3d
       0.113598235 0.10754729 -0.069630295 0.045629703
000370 9d c5 24 be 47 ed 9a bd 5c f5 02 3e a2 ee ab 3d
       -0.16091008 -0.07564788 0.1278891 0.08395125
000380 68 0e 11 be c7 ba c7 bd 57 3c 13 be 56 cf 67 be
       -0.14165652 -0.09752422 -0.14378487 -0.22637686
000390 63 ea 3f be 30 b0 8b 3c cc 19 0c 3e de e5 8a 3d
       -0.18741755 0.017051786 0.13681716 0.06782125
0003a0 09 1a 3c be 7a 35 34 be aa 74 87 3e 42 84 29 be
       -0.18369307 -0.17598525 0.26456195 -0.16554359
0003b0 22 20 16 bd ee 05 cf 3d 99 08 9d bd f8 35 2b bc
       -0.036651738 0.10108553 -0.076676555 -0.010449879
0003c0 55 12 19 bd 34 b8 a7 3d 23 2d 17 be dd c8 09 be
       -0.037371 0.08189431 -0.14763312 -0.1345553
0003d0 66 df b2 bc 2b 5d ee bd 3d 32 91 3e b1 28 75 bd
       -0.02183504 -0.11638864 0.2835864 -0.05985326
0003e0 d1 71 1e be ee 1e 69 3d 78 76 01 3e ce 99 e8 3d
       -0.15473105 0.056914262 0.12642848 0.11357461
0003f0 d6 09 2c 3e 10 cd 45 3e dd 9a 3d be 91 20 50 3d
       0.16800627 0.19316506 -0.18516107 0.050812308

bias f4 [15]
000000 8b d1 5d 3d d2 7d bd bd 5d fd a9 be 87 1b 38 be
       0.054154914 -0.09252514 -0.33201113 -0.17979251
000010 50 cb 08 be ba 65 de 3b 43 b9 03 be a7 13 f1 bd
       -0.13358808 0.006787029 -0.1286364 -0.117713265
000020 b4 2e a7 bd 19 51 cb 39 83 8f 15 be a9 9a a1 3c
       -0.08163205 0.000387796 -0.14605527 0.019727068
000030 bb 77 b6 bc 1b 53 26 3e 2d 91 e1 bc
       -0.022273889 0.1624264 -0.027535046

weight f4 [5, 15]
000000 a6 47 46 bd 73 4a 4c bd 8c d6 81 3e f9 fb 53 3e
       -0.048408173 -0.049875688 0.25359 0.20701589
000010 a8 b3 1e 3f c2 42 22 bf db 35 19 3d cf d3 75 3e
       0.61992884 -0.63383114 0.037404876 0.2400658
000020 0a 36 ba bc 5e fb ee bd 2f db 32 3e 60 ad 81 3d
       -0.022730846 -0.11669038 0.17466424 0.06331897
000030 4e c6 6e 3e a8 64 0d be aa 95 93 3e 67 f6 07 3f
       0.23317835 -0.13807929 0.28825122 0.53110355
000040 af de 5a bf 53 4b 32 bd 0d f8 5e bf 23 30 c5 bf
       -0.8549604 -0.043528866 -0.87097245 -1.5405315
000050 ce 17 b8 3f 79 61 71 be 61 95 a4 3d 18 83 0f be
       1.4382265 -0.23572339 0.08036304 -0.14014852
000060 02 28 96 bd c8 1f 7a bf 04 4d 87 3e 50 93 2c bf
       -0.0733185 -0.97704744 0.26425946 -0.6741228
000070 5c c4 a4 3f 36 bf 1c bf f8 a0 f4 bc b9 c0 25 3e
       1.2872424 -0.61229265 -0.029861912 0.16186799
000080 08 1b c7 bc bd cf 25 3e 0c 7d 3e 3e f9 62 64 be
       -0.024304882 0.16192527 0.18602389 -0.2230338
000090 d1 78 cb 3d 3e a6 47 3d ba 6e 63 3d 89 1c 1b 3d
       0.09935153 0.048742525 0.05552552 0.03786901
0000a0 4b 12 91 3d 4e 5e fe bd 6c f7 07 bd ac 95 7b 3e
       0.07083567 -0.12420331 -0.033194944 0.24568814
0000b0 c8 31 31 3e 9d f0 d5 bd 34 e1 80 bf d3 d4 43 3f
       0.17304146 -0.10446284 -1.0068727 0.7649662
0000c0 f4 d1 ac be b6 00 da 3f 93 c0 e3 bf 6b 0a 17 ba
       -0.33753932 1.7031467 -1.7793144 -0.0005761745
0000d0 03 b9 6a bd 24 4f 2a 3d ea ca 23 3e cd 94 16 3e
       -0.057305347 0.04157938 0.15995374 0.147052
0000e0 ad f5 a1 3d 06 9f 10 3f eb 24 72 3f bd 4b 5d 3f
       0.07908187 0.5649265 0.9458758 0.8644369
0000f0 00 bb 6b bd bb fb fd 3d f2 5d 90 bd 73 fa f6 3d
       -0.057551384 0.124015294 -0.07049169 0.12059488
000100 3e f5 66 bd f5 3f 32 be d9 3d d7 3d 81 25 22 3d
       -0.056386225 -0.1740721 0.105098434 0.039586548
000110 c4 c2 eb 3d 6b 7a 83 3e 88 69 34 3e 33 a4 7a 3e
       0.11511758 0.25679335 0.17618382 0.244767
000120 be c0 62 3c 99 d3 62 be 2a 70 39 be
       0.013839899 -0.2215103 -0.18109193

bias f4 [5]
000000 d0 b2 90 bc 63 a3 48 3e ec 84 03 be 90 12 09 be
       -0.01766339 0.19593577 -0.12843674 -0.13385987
000010 39 e0 72 be
       -0.23718347

weight f4 [50, 5]
000000 d6 d2 88 be 0f aa e1 be c3 8b 8c be d1 e3 2e 3e
       -0.26723355 -0.44075057 -0.2745038 0.17079093
000010 ed f9 be 3e c2 16 08 be 32 85 05 be 6d 95 74 3e
       0.37300053 -0.13289931 -0.13039091 0.23885126
000020 d6 d9 61 be 65 74 58 be ea ba 8c 3e aa bd c6 be
       -0.22055754 -0.21138151 0.27486354 -0.38816577
000030 9c 05 5f 3d 2f 68 c9 3e e9 03 9e 3d 6d 60 f8 3d
       0.05444871 0.39337298 0.077155896 0.12127767
000040 f6 db 84 be 79 14 ce bb 93 72 c3 3c 8b 17 e1 3d
       -0.25949067 -0.0062890616 0.023858344 0.109908186
000050 17 a8 31 3e 41 4b c7 3e dd df ae be 1f 03 54 3c
       0.17349277 0.38924602 -0.3415517 0.012940197
000060 9c 1b 65 be 2f eb b4 be 98 2d 15 bd 42 77 c9 be
       -0.22373813 -0.3533568 -0.036420435 -0.393488
000070 c3 54 a0 3e 9b a7 53 3d c8 6f 76 be 5a c9 6e 3e
       0.31314668 0.051673513 -0.24066079 0.23318997
000080 64 96 d8 be c6 13 30 be f6 1b b2 bd ab 60 c2 be
       -0.4230224 -0.17195043 -0.086967394 -0.37964377
000090 26 2d 92 be 53 3d 95 bd 7b 1e ae 3e 2a 0a dd 3e
       -0.2855007 -0.07287087 0.3400763 0.43171817
0000a0 76 e9 91 3e 26 41 89 be ae ae 95 be 92 39 c8 3e
       0.2849843 -0.26807517 -0.29234833 0.39106423
0000b0 e5 c3 21 3e c7 c5 41 3c 1e 7a 78 3d 70 06 b8 be
       0.15797384 0.011826939 0.060663335 -0.3594241
0000c0 96 00 19 be d0 69 dc 3e 62 30 e3 bd 4f b4 ab bc
       -0.1494163 0.4304948 -0.11093213 -0.020960001
0000d0 77 4b be be e0 a0 80 be e4 84 1c bc 5e 1a 8e be
       -0.3716695 -0.25122738 -0.009553168 -0.27754492
0000e0 1d ef 63 bd 1d 8b 3a 3e 2e 82 df be 5f 3c 08 3e
       -0.055647958 0.1821713 -0.43654007 0.1330428
0000f0 0e 53 97 be 28 14 60 be e2 de 2f 3e a9 24 b6 3e
       -0.29555553 -0.21882689 0.17174867 0.35574844
000100 bd 59 fa bd b8 55 3c be 7e f6 ce be 55 52 6c be
       -0.122241475 -0.18392074 -0.40422434 -0.23078282
000110 6e 1f c9 be 42 14 d2 bd 70 47 bb 3d b8 ed d6 be
       -0.3928179 -0.1025777 0.09144485 -0.4197824
000120 1c f9 c7 3e 56 a1 8f 3e d4 30 e0 be 89 6d 5a be
       0.39057243 0.28052777 -0.43787253 -0.21330847
000130 22 82 14 3e f4 e2 bb bd cc 0a 47 bd 80 98 4e be
       0.14502767 -0.09174147 -0.04859428 -0.20175362
000140 cb 04 b8 3e c8 2c 80 be 52 e2 bd 3e 67 90 f1 3c
       0.35941157 -0.25034165 0.3708673 0.029487802
000150 98 db b7 3d a1 b1 b2 3e 54 05 98 bd 4c 5d 82 be
       0.08977431 0.34901145 -0.07422891 -0.25461805
000160 66 cc 93 bd 99 b5 b9 3e 19 3b aa be 88 74 d3 3d
       -0.0721672 0.3627136 -0.33248213 0.10324961
000170 ce 2f e1 be 9c 18 6f 3e f4 96 28 3e 03 4e 9e 3c
       -0.43981785 0.23349231 0.16463834 0.019324308
000180 3f 77 43 3e e7 0c 1c 3a 70 fd 7d 3e a2 2c b5 be
       0.19088458 0.00059528503 0.2480371 -0.35385615
000190 a9 02 87 bd ff e4 4b 3e 92 f3 e3 3e 0e d6 68 3e
       -0.06592304 0.19911574 0.44521767 0.22737905
0001a0 2b 89 a6 be 59 21 b0 3e 15 4d cc bd 4f 80 c3 bd
       -0.32526526 0.34400442 -0.0997564 -0.09545957
0001b0 97 f8 cf be 3e 1a 90 bd 17 09 a2 3e 08 13 7e 3d
       -0.40619346 -0.07036255 0.3164756 0.06202987
0001c0 c6 5d 85 be d0 65 0d 3e 3f ea 12 be 4a 01 d1 3e
       -0.26048106 0.1380837 -0.1434717 0.40821296
0001d0 52 a9 c6 be 9e ae 10 be 5c 4b dd be 66 5a 34 be
       -0.38801056 -0.14129111 -0.43221557 -0.1761261
0001e0 54 75 10 3e f6 12 dc 3e 19 d1 99 3d a5 4c e0 3e
       0.14107257 0.42983216 0.07510585 0.43808475
0001f0 5d f7 b3 3d 8f 38 84 3e ed 9c b7 3e 78 67 bf 3e
       0.08787415 0.258244 0.35861912 0.37383628
000200 62 37 80 be 5e 83 d2 3e 76 76 8a 3e 18 d6 54 be
       -0.25042254 0.4111585 0.27043504 -0.20784795
000210 2b d3 5a be e9 68 c0 be 02 d5 e5 3d 64 95 b9 be
       -0.21369617 -0.3758004 0.11222269 -0.36246789
000220 f7 da 41 3e 1b ab 10 3e a1 b8 c6 be 33 99 f9 3d
       0.18931185 0.14127772 -0.38812736 0.121874236
000230 09 c7 15 bd c0 1b 52 3e 66 5a 83 3e f9 93 e3 be
       -0.036566768 0.20518398 0.25654906 -0.44448832
000240 8f d9 d1 3e 8a 53 c0 3e 25 f8 34 3e 21 28 d1 be
       0.40986297 0.37563735 0.17672785 -0.40850928
000250 dc 10 22 be 24 79 04 be de fa eb bd e5 f8 81 3e
       -0.15826744 -0.12936836 -0.115224585 0.25385204
000260 fd 79 26 3e 5c 92 b5 3e 91 23 2c be e4 b8 1a 3e
       0.16257472 0.35463226 -0.16810443 0.15109593
000270 af ac 21 3e 2e 73 be be 9c 79 dd be b2 0c 6d be
       0.1578853 -0.3719725 -0.43256843 -0.23149374
000280 f6 b5 9c 3e ed 95 d7 be 60 4e c7 be 39 1a 80 3e
       0.30607575 -0.42106572 -0.38926983 0.25020006
000290 32 25 77 3e a9 47 bc 3e c5 85 ac be 98 95 a7 be
       0.24135283 0.36773422 -0.33695808 -0.32731318
0002a0 66 28 6b 3e 9b 1f c7 3e c1 d0 88 3e ab 2a 92 3d
       0.2296463 0.388913 0.26721767 0.071370445
0002b0 38 e0 16 3e 86 18 d9 3e 02 c6 93 be 67 1e 50 be
       0.1473397 0.42401522 -0.28862005 -0.20324098
0002c0 d3 f2 9f 3e e1 be 9c be 54 ee 7d be 44 33 a7 3e
       0.31239948 -0.3061438 -0.24797946 0.326563
0002d0 96 d8 10 3e 98 70 14 3e cb df 41 be b3 98 85 bb
       0.14145121 0.14496076 -0.18933026 -0.004077041
0002e0 8e 85 d1 3e 01 ab 89 be df eb 90 3b 7a 8b 59 3e
       0.40922207 -0.26888278 0.0044226493 0.21244612
0002f0 a2 91 9e be aa 31 de 3e 71 32 64 be 68 18 de bd
       -0.30970484 0.43397266 -0.22284867 -0.10844499
000300 3e 47 f7 bd 70 70 94 be b6 90 e0 be b9 60 81 3e
       -0.12074135 -0.28992033 -0.43860406 0.25269106
000310 ae 16 f2 3d ff 50 d6 be 13 9f 92 be c7 6f e2 3e
       0.11820732 -0.4185867 -0.2863699 0.44225904
000320 39 28 2f 3e 82 30 37 3e 37 fe 88 be d4 11 49 be
       0.17105187 0.17889598 -0.2675645 -0.19635707
000330 30 d5 89 bd 97 c6 a6 bd 44 8b 9d be 4f 83 17 3d
       -0.067301154 -0.08143347 -0.30770314 0.03699046
000340 32 08 38 3d fa 4b 68 bd a4 77 7d 3d b8 04 35 be
       0.04492969 -0.056713082 0.061881676 -0.17677581
000350 ab 43 ee 3d 00 b7 2c 3e d6 5b 71 be 99 0b e3 be
       0.116340004 0.16866684 -0.23570189 -0.44344786
000360 1a f2 6f 3e df 7e da 3d 97 b5 68 be be a5 dc 3e
       0.23432198 0.1066873 -0.22725521 0.430952
000370 ef 4a 4f be 1d b1 9a 3e 30 34 68 3e a2 78 c0 be
       -0.20243429 0.30213252 0.22676158 -0.37592036
000380 17 a7 93 3e 66 b9 d2 be a3 88 7c be e5 13 99 bd
       0.28838417 -0.41157073 -0.24661498 -0.07474498
000390 69 81 9a be d9 8f df 3e c1 f7 b6 bd fd c9 35 3e
       -0.30176857 0.43664435 -0.08933974 0.17752834
0003a0 87 5a cc be 21 78 84 3e cd 7d 0e be fe 57 ae be
       -0.39912817 0.258729 -0.13915177 -0.34051508
0003b0 b2 a8 88 3d 6d c1 5d 3e 8a 00 c6 3e b2 f4 8b be
       0.06672801 0.21655817 0.38672286 -0.27335125
0003c0 8b 78 61 be 07 4a b2 3d 06 7d f8 3d e0 d0 30 3e
       -0.2201864 0.08705526 0.12133221 0.1726718
0003d0 0e ad 7a 3e ba f4 cf bd 88 d5 7e 3e 83 cb a8 3e
       0.24480078 -0.101541 0.24886143 0.32967767
0003e0 4b be ef bd 45 db a2 3e
       -0.117062174 0.31807914

bias f4 [50]
000000 21 7c 5f 3e aa dc c9 3e 12 d7 82 be 14 bd 62 be
       0.21824695 0.39426166 -0.2555471 -0.2214244
000010 ee 9d 03 be ac 46 bb 3c c3 25 89 3e 93 6c 82 be
       -0.12853214 0.022860847 0.26786622 -0.2547346
000020 88 15 66 3e 70 08 24 be a3 d4 8a 3e 6b c4 b4 bc
       0.22469151 -0.16018844 0.27115354 -0.022066316
000030 2b 7d c8 be 2b ff 7a be 16 6c a5 be 29 d0 62 3e
       -0.39157996 -0.24511401 -0.32309026 0.2214972
000040 9c 67 99 be 6c 43 17 bd 6a b5 c8 3d da 68 7b be
       -0.2996186 -0.036929533 0.09800227 -0.24551716
000050 f4 2b 04 3e 58 a9 df be c6 ba a3 be 5e 6a cf be
       0.12907392 -0.43683887 -0.31978434 -0.4051084
000060 74 5a 0b be d3 c4 26 be 00 fd 82 3d 67 03 aa bd
       -0.13608724 -0.1628602 0.06395912 -0.0830143
000070 06 ca 57 3e 4e 86 d1 3e 00 82 25 3e 1d 09 36 be
       0.2107316 0.4092278 0.16162872 -0.17776914
000080 05 74 d6 be 18 83 25 3e a5 ef 62 be ed 54 69 3e
       -0.4188539 0.1616329 -0.2216173 0.22786303
000090 cc b7 98 3e f2 c0 31 3e 35 71 d6 3e cd ec d8 3e
       0.29827726 0.17358759 0.41883245 0.42368165
0000a0 93 44 c1 3d c0 84 a6 be 34 b6 cc 3e f3 43 59 be
       0.094369076 -0.32523155 0.3998276 -0.21217327
0000b0 32 ed 57 be f6 d5 bf 3e 1a 73 b1 3e a0 9f 0a 3e
       -0.21086577 0.37467927 0.34658128 0.13537455
0000c0 72 8c f1 3c a5 82 c0 be
       0.029485915 -0.37599674

weight f4 [30, 50]
000000 bb 4c 5b bc fb d2 0a 3e 86 d3 16 3d df 84 4b 3c
       -0.013384993 0.13557045 0.03682282 0.012421816
000010 7e 68 fb bc 70 69 4b bd 9c b7 a7 3d 02 ed 11 3c
       -0.030689474 -0.0496611 0.081893176 0.008906605
000020 d2 92 be 3d 81 4b cd bc 73 fa 79 3d ba e0 6e 3d
       0.093053475 -0.025060417 0.061029863 0.058319785
000030 36 d6 b9 3c f4 f7 b6 3d 8a 27 b7 3d b4 52 04 3e
       0.022685152 0.08934012 0.08943088 0.12922174
000040 51 8c df 3d 3b 75 13 bd ea 40 f7 bd f1 85 cf 3c
       0.10915435 -0.03600047 -0.12072928 0.025332423
000050 92 1c 36 bb 7f e0 16 bd c7 17 c2 bc ae 5d e9 3b
       -0.0027788025 -0.03683519 -0.023692979 0.007121763
000060 e5 43 d1 3d fc 83 33 3d ec ae 4a bd f7 aa 71 bd
       0.10218028 0.043827042 -0.049483225 -0.059000935
000070 23 5c 12 bd 8e 7e 66 bd 1f 5d 00 3e ae f6 97 3d
       -0.0357324 -0.056273036 0.12535523 0.07420097
000080 ff 45 03 3e 22 c0 e7 3a 35 4b e8 3c 42 30 41 3d
       0.1281967 0.0017681161 0.028356174 0.047165163
000090 55 d1 09 be f9 74 4d 3c f0 a0 2b bc 37 d1 a3 bd
       -0.1345876 0.0125400955 -0.010475382 -0.07998889
0000a0 35 e9 e2 bd 6a 6c 00 3e 2c 5d ec 3d b6 50 85 3d
       -0.11079637 0.12541357 0.115412086 0.06509535
0000b0 ec 8c 09 3e 4d fa 68 bd c4 65 da bc 12 41 56 3d
       0.13432664 -0.05687933 -0.026659854 0.05230815
0000c0 79 8e c1 bc e9 c3 e3 bc fb 3f ef bd 2c 50 1c 3d
       -0.023627507 -0.027803378 -0.11682125 0.038162395
0000d0 28 08 af bd 49 86 a8 3b 0a 31 0d 3e 8a 48 32 bd
       -0.085464776 0.005142961 0.13788238 -0.04352621
0000e0 5a 14 36 bd f2 bc ae 3d 5c c9 54 bd 69 fb 46 bc
       -0.044453003 0.08532132 -0.051949844 -0.012144902
0000f0 3f 57 07 3e 94 5a 6d bd 77 34 cf bd e0 11 a2 bd
       0.13216875 -0.05794771 -0.10117429 -0.07913566
000100 15 99 20 bd 4e 43 89 bd 77 4c 96 bd 5a fd 69 3d
       -0.03920849 -0.067022905 -0.07338803 0.05712638
000110 54 02 c5 3c 44 66 39 bd 28 02 e1 bd e6 62 36 bd
       0.024048962 -0.045263544 -0.109867394 -0.04452791
000120 a1 78 74 bd b7 80 3c bd 31 a4 02 be 67 94 f9 3c
       -0.059685353 -0.04602119 -0.12757947 0.030466272
000130 75 a8 d4 bd 31 90 e1 bd 5b 85 ec bd e1 69 72 3d
       -0.10383693 -0.110138305 -0.11548873 0.059183005
000140 23 59 ae bd f6 0d 6f bd 47 06 e3 3d 0e d3 99 3d
       -0.08513095 -0.058362924 0.11085182 0.075109586
000150 64 12 a6 3d 56 6f 09 be de 94 cf bd 0e 6f 5a bd
       0.081089765 -0.13421378 -0.10135816 -0.053328566
000160 74 b6 ef 3d 52 67 6f 3c 7a 85 d8 bd a7 24 68 3a
       0.11704722 0.014612036 -0.10572334 0.0008855559
000170 1e ac e0 bd ed d4 fd bc 57 48 1f bd 61 0d fb 3d
       -0.10970329 -0.03098532 -0.038887348 0.12258411
000180 a9 d3 33 3d 39 e7 c9 bc 3d b5 c3 3c 84 36 27 bd
       0.043903027 -0.024646388 0.023890132 -0.040823475
000190 98 97 63 3d 93 22 65 3d a5 8e 1b 3d 6e c8 61 bd
       0.055564493 0.055941176 0.037977833 -0.055122785
0001a0 4f 19 f7 3d 11 42 a7 bc 2e 84 61 bd 62 66 b5 3d
       0.12065374 -0.020417245 -0.055057697 0.088574186
0001b0 b6 10 ec 3d 52 1d 10 3e 75 9c 2b 3d 82 77 45 bd
       0.11526625 0.14073685 0.041897256 -0.048209675
0001c0 e9 19 93 3d 7c 7d f8 3d 3c 0a 0e be a6 86 8f bc
       0.07182676 0.12133309 -0.13871092 -0.01752026
0001d0 b0 84 c5 bd f8 e6 d7 3c e9 92 6f 3d d3 56 ef bc
       -0.09644449 0.026355252 0.058489714 -0.029216206
0001e0 de d7 41 bc b3 5d 82 3d 82 b6 c2 bc e4 39 f3 bd
       -0.011831252 0.06365528 -0.023768667 -0.11876276
0001f0 75 be e7 3d 84 c6 91 bd 23 8c 7e bc 07 8f 5a 3c
       0.11315624 -0.07117942 -0.015536341 0.013339764
000200 4e 3f 0b bc d4 39 08 be e9 e1 84 3d 3b 8f 83 bd
       -0.00849898 -0.1330331 0.064884014 -0.064238034
000210 4a 38 96 bd e3 64 0a 3d d2 25 97 bd 11 db 85 bd
       -0.07334955 0.03378762 -0.073802605 -0.06535924
000220 a9 2e 43 bd 9f 9d 59 bd e6 eb 71 bd 00 38 1c bd
       -0.04765192 -0.053128835 -0.05906286 -0.038139343
000230 40 89 16 3d e3 5f ea bd dd 4e af bd 84 3c 07 3b
       0.036751986 -0.1144407 -0.08559964 0.0020635435
000240 1e 1d a1 3c 04 f6 9f 3d 1d 73 cb bd 84 e5 38 3d
       0.019667204 0.07810596 -0.099340655 0.04514076
000250 8f 9f a4 3d 0f d2 a0 3d c0 cf 06 be 9d 0a 5c bd
       0.08038246 0.078525655 -0.13165188 -0.05372106
000260 30 a0 f8 bd 22 48 b7 bd b4 88 a1 3d a4 1a ab bc
       -0.12139928 -0.08949305 0.07887402 -0.020886727
000270 68 4d 76 3d 69 03 aa bd dc 22 b5 3c 82 2f af bd
       0.060132414 -0.08301432 0.022111349 -0.08553983
000280 6b bb 90 3d 79 5f 7d bd f0 0c 11 bd fa 4a fb bd
       0.07066997 -0.061858628 -0.03541273 -0.1227016
000290 00 bf 2c 3a 3d c4 09 3e 9f 94 8c 3d ad 87 9a bd
       0.00065897405 0.13453765 0.06864285 -0.07545409
0002a0 31 84 08 3b 00 ea 78 bc e9 9a e7 bd d9 18 e3 3d
       0.0020830745 -0.015192509 -0.11308844 0.11088724
0002b0 90 aa 16 3b 50 fb f3 3c d8 95 67 bd 35 8a 87 bd
       0.0022989847 0.029782921 -0.056539387 -0.06618158
0002c0 4c 07 bf 3c ec 01 56 3d bd c2 01 3d 65 b9 8a bd
       0.02331891 0.052247927 0.031679858 -0.067736425
0002d0 68 74 0d 3e 4d b8 aa bc 47 5e b1 bd 0d 11 87 bd
       0.13813937 -0.020839835 -0.0866056 -0.06595049
0002e0 48 2d 0f 3e ac f9 80 b8 9b fc 9b bc f2 1b 71 bd
       0.13982117 -6.1500206e-05 -0.01904135 -0.05886454
0002f0 bd f0 16 bd 8c ef f3 bd 92 2d e6 bd 98 84 a9 3d
       -0.03685068 -0.11910924 -0.112391606 0.082772434
000300 8a 73 f9 3d 56 2f 0a 3e c9 23 d1 bd 67 a5 9c 3d
       0.121802405 0.1349462 -0.102119036 0.076487355
000310 b4 ab b1 bd 61 6a ae 3d cd 34 d1 3d 5d 22 e0 3d
       -0.08675328 0.08516384 0.10215149 0.10944054
000320 a9 3f cf 3d 0c 51 b6 3d eb 3d 16 3b 1f bd 84 3d
       0.10119564 0.08902177 0.002292509 0.064813845
000330 63 f1 4b bd 49 97 7c 3d 4d bd 32 bd 8e f9 22 bb
       -0.04979075 0.061667714 -0.043637563 -0.0024867984
000340 4f 56 fd bd 72 3b 17 bd 2c 59 96 bd ec bb 41 bd
       -0.12369978 -0.036921926 -0.07341227 -0.047298357
000350 1a 22 b9 bd 77 5a 02 be ed 6d 0f 3c 24 9a be 3d
       -0.090397075 -0.12729822 0.008754236 0.09306744
000360 ca a8 03 3e 4d d8 a8 3d 2f 24 95 bd e2 0c 0f be
       0.12857357 0.08244381 -0.07282292 -0.13969758
000370 d8 5c 5e 3d 4f 51 a2 3d d3 a6 f8 bd d3 e6 4e 3d
       0.05428776 0.07925665 -0.12141194 0.0505131
000380 52 8c f5 3d eb 68 10 3c cb b5 ae bd 05 35 ef 3d
       0.119896546 0.008814077 -0.08530768 0.116800345
000390 57 23 7b 3d 4c 97 c2 3d 7e 58 c2 bd 7d 22 aa 3d
       0.061313 0.09501514 -0.09489535 0.08307359
0003a0 1a 65 c6 bd a7 9a 0e 3e 03 a4 75 bd 1c a3 b1 3d
       -0.09687252 0.13926183 -0.059970867 0.08673689
0003b0 90 72 ec 3c 79 26 1b 3d 32 38 a7 bc f4 dd 71 3d
       0.028863221 0.037878487 -0.020412538 0.05904956
0003c0 9c b0 6d bd 5f 9f 08 be a0 4b 5f bd f4 d0 e3 3d
       -0.058029756 -0.13342045 -0.05451548 0.11123839
0003d0 d3 f7 15 bd e3 fa 36 3d e5 40 51 bd b0 23 da 3d
       -0.036613297 0.044672858 -0.05108728 0.10651338
0003e0 7b 7f ad 3d 93 b5 4c 3d 5a d2 91 bd 90 95 ec bd
       0.084715806 0.04997785 -0.071201995 -0.11551964
0003f0 c6 5c d3 3b 59 2f a9 bd b6 64 ed 3d 2b f9 0a be
       0.0064502684 -0.08260984 0.11591475 -0.13571613

bias f4 [30]
000000 06 56 f6 3d 09 88 a6 bb 83 6e e8 bd be 26 36 bd
       0.120281264 -0.0050821346 -0.113492034 -0.04447054
000010 f1 38 15 bd 55 e0 32 3b d5 1f 04 be db b3 d7 3c
       -0.036431257 0.0027294357 -0.12902768 0.026330879
000020 48 7e 83 bd 9d 50 14 bd 89 10 96 bd 62 5d fe bc
       -0.064205706 -0.03620969 -0.073273726 -0.031050388
000030 47 6e 05 be 52 73 9c bd 2e 8e 5a 3c 04 5d bd 3d
       -0.13030349 -0.07639183 0.013339562 0.09246257
000040 fc da 01 3e 43 30 de bd 7e 82 79 3d 11 35 a0 bd
       0.12681192 -0.10849049 0.060915463 -0.078226216
000050 e3 bd e1 bd c4 71 dc bb 55 25 a6 bd f7 6b f9 bd
       -0.11022546 -0.006727429 -0.08112589 -0.12178796
000060 75 87 02 be a1 13 bc bd 73 f5 e9 3d f8 a0 a7 3d
       -0.12746985 -0.091834314 0.11423769 0.08184999
000070 a4 40 65 bd f3 fe c3 bd
       -0.05596985 -0.09570112

weight f4 [3, 30]
000000 0e d7 0b be 08 d2 dc bd 37 dd 99 bd 33 0b e2 3d
       -0.13656256 -0.10782248 -0.075128965 0.11037292
000010 31 b3 70 3d 74 42 91 bd 73 68 00 3e 7f fd e7 bd
       0.05876464 -0.07092753 0.12539844 -0.113276474
000020 03 69 15 be 72 36 23 3d c1 30 ce bd 06 41 4e 3d
       -0.1459084 0.039846845 -0.10067893 0.05035498
000030 f7 b7 1f 3e 41 ab b0 bd 37 5f 02 be 40 0b 90 3d
       0.15597521 -0.08626414 -0.12731634 0.07033396
000040 45 e5 29 be c5 58 29 3e 48 bc b4 bd 59 34 b5 3d
       -0.16591366 0.16537769 -0.08824974 0.08847875
000050 58 cd 13 be bb f4 fc bd a5 c0 a4 3c 70 c7 84 3d
       -0.14433801 -0.12351366 0.020111391 0.06483352
000060 d5 5b 12 3e 24 25 1d 3e e7 a2 46 bc 05 d6 c2 bc
       0.14292844 0.153462 -0.0121238 -0.023783693
000070 b2 3b f7 3c 9e 0b 2c bd 5a 2a 06 3c b2 0e 31 be
       0.030179832 -0.042003267 0.008188808 -0.17290762
000080 3a 79 19 be ee 1f 00 3e 47 60 e2 bd 01 37 14 3e
       -0.1498765 0.1251218 -0.1105352 0.14474107
000090 07 a4 a5 3c fb a8 27 3d 21 db 27 3e 57 f7 cf bd
       0.020219816 0.040932637 0.16392185 -0.10154598
0000a0 dc 7b ea bc b6 67 06 3d 98 1b 80 3d 5d 7c 31 be
       -0.028623514 0.03281375 0.06255263 -0.17332597
0000b0 d3 ab 81 3d 19 b4 db bd 85 b4 90 3c 5d e6 f2 3d
       0.06331601 -0.1072771 0.017664203 0.118603446
0000c0 8e c2 9f bc 57 c8 d8 bb c4 60 24 bc 6a fe 1b 3e
       -0.01950195 -0.0066156792 -0.010032836 0.1523377
0000d0 52 81 d4 3d 56 59 f7 3c 0b d3 e8 bd eb 22 cc bd
       0.103762284 0.030193966 -0.11368378 -0.099675976
0000e0 ad c0 0e 3e f2 ee 08 3e ae 7f d8 3d 38 93 0f be
       0.13940687 0.133724 0.10571228 -0.14021003
0000f0 33 05 13 3e fb e9 8e bc ba bd 09 3e 4d 6e 22 3e
       0.14357452 -0.017445555 0.13451281 0.15862389
000100 f1 13 8e 3c 3a 08 9b bd 78 f3 2f 3e 57 8d c8 bd
       0.017343493 -0.075699285 0.1718272 -0.097925834
000110 66 81 f1 3d 2d 45 33 be 60 ee 6a bd 9d 76 22 be
       0.11792259 -0.17506857 -0.05735624 -0.1586556
000120 ac 61 a7 bd d8 5a a3 3d 75 11 07 be ba cd 20 be
       -0.08172926 0.079763114 -0.13190253 -0.15703478
000130 fc 6f 01 3e a4 1a c1 3d 86 17 3b bb 9b ad 04 be
       0.12640375 0.094289094 -0.0028547957 -0.1295685
000140 b9 04 3e bd 02 3e 72 bd a7 ec e6 3d 29 bf 75 bd
       -0.046391223 -0.059141167 0.112756066 -0.059996758
000150 3f 8f 62 bd 91 12 05 be da 48 b8 bd bd 7b cd 3d
       -0.05531239 -0.12995364 -0.0899827 0.10033367
000160 f3 e7 f0 3d ca 43 e2 3c
       0.11762991 0.027620215

bias f4 [3]
000000 27 a2 80 bd d4 ef 28 3e 4d 94 01 3d
       -0.06280928 0.16497737 0.03163557
